data/etc/input/motion_predictor_model.tflite (tflite, 179532 bytes, 27 tensors)

stylus_predictor/phi/linear/MatMul;stylus_predictor/phi/linear/Add f4 [64]
-0.091790535 0.09923037 0.10850415 0.07222497 0.035916578 0.2751315 -0.5394931 -0.037989352
0.020721978 -0.09059991 -0.03562863 -0.07040632 -0.05832969 -0.057384927 -0.049022034 -0.061078362
0.086125165 0.3697118 -0.038235825 0.15276146 -0.045861635 0.20502682 0.13111381 -0.052096337
-0.017964453 -0.13269678 -0.102175936 0.010945547 -0.20739853 -0.2638822 -0.022368148 0.06936089
0.110614255 0.041191358 -0.098443545 -0.45021856 -0.0023369812 0.09315082 -0.052465003 0.281385
-0.058915354 -0.017104518 -0.019547047 -0.3177732 0.07853825 0.23716047 -5.846963e-06 0.104780786
0.03782001 -0.08835866 0.001484928 -0.006850453 0.14175949 -0.15619817 0.01439946 0.18522337
0.09590581 -0.02018653 0.28327724 -0.0058049536 -0.12013416 0.012803049 0.2875976 -0.09669034
00000000: adfc bbbd 4b39 cb3d 6c37 de3d afea 933d
00000010: 431d 133d 09de 8c3e 381c 0abf b99a 1bbd
00000020: 23c1 a93c 728c b9bd 54ef 11bd 3031 90bd
00000030: 1deb 6ebd 750c 6bbd 54cb 48bd 4e2d 7abd
00000040: 6462 b03d dd4a bd3e 2b9d 1cbd 806d 1c3e
00000050: 69d9 3bbd 8df2 513e b342 063e f862 55bd
00000060: 302a 93bc aae1 07be 9e41 d1bd f454 333c
00000070: 4860 54be 911b 87be 683d b7bc 150d 8e3d
00000080: ba89 e23d 45b8 283d c59c c9bd 0c83 e6be
00000090: 0a28 19bb dbc5 be3d 8be5 56bd b211 903e
000000a0: 3a51 71bd c61e 8cbc 2121 a0bc 2bb3 a2be
000000b0: a9d8 a03d 32da 723e 0831 c4b6 4f97 d63d
000000c0: 28e9 1a3d 63f5 b4bd eaa1 c23a c479 e0bb
000000d0: 6629 113e 6af2 1fbe b6eb 6b3c 32ab 3d3e
000000e0: 446a c43d 395e a5bc b709 913e 7b37 bebb
000000f0: e608 f6bd e1c3 513c fe3f 933e 9605 c6bd

stylus_predictor/pressure/linear/MatMul;stylus_predictor/pressure/linear/Add f4 [64]
-0.04626535 0.2543571 -0.10509237 0.03710262 0.112855844 0.2820857 -0.20926231 -0.20573871
-0.09762947 -0.14099284 0.058816593 0.017872246 0.12635244 0.046563454 -0.02998229 -0.1651422
-0.006067397 0.0028617163 0.06535218 0.17807245 -0.011102452 -0.049868457 0.10030409 -0.026518699
0.057059884 -0.049417853 -0.103843704 0.21263856 0.21715796 0.03243375 0.07112289 0.049962904
-0.043524127 -0.08766011 0.08216959 0.083957575 -0.14831407 -0.0718641 -0.017458376 -0.030166607
-0.076338254 0.13978057 0.07224988 -0.23395003 -0.05329517 0.19195884 -0.3693508 -0.18621245
0.04881721 0.09561577 0.13928172 0.26914072 -0.16182488 0.20268188 -0.3059551 -0.0033817354
0.07761303 0.07957888 -0.013814016 0.1555305 0.2024365 -0.38897932 0.14595681 -0.08046055
00000000: bc80 3dbd 183b 823e ab3a d7bd ebf8 173d
00000010: f720 e73d 896d 903e dc48 56be 2bad 52be
00000020: f6f1 c7bd 6d60 10be abe9 703d d168 923c
00000030: 8962 013e 52b9 3e3d 6b9d f5bc 091b 29be
00000040: 04d1 c6bb a28b 3b3b 5dd7 853d a058 363e
00000050: 0fe7 35bc de42 4cbd 3b6c cd3d be3d d9bc
00000060: a0b7 693d 606a 4abd 02ac d4bd ecbd 593e
00000070: a85e 5e3e 40d9 043d e1a8 913d e7a5 4c3d
00000080: 5b46 32bd 2587 b3bd 8848 a83d f3f1 ab3d
00000090: a5df 17be 7c2d 93bd de04 8fbc f61f f7bc
000000a0: 3b57 9cbd a322 0f3e bff7 933d 9990 6fbe
000000b0: 094c 5abd dc90 443e 8c1b bdbe 7aae 3ebe
000000c0: 8ef4 473d 33d2 c33d de9f 0e3e d0cc 893e
000000d0: 6cb5 25be d78b 4f3e 26a6 9cbe 1ba0 5dbb
000000e0: 95f3 9e3d 40fa a23d 2f54 62bc 6343 1f3e
000000f0: 844b 4f3e 4c28 c7be b475 153e 80c8 a4bd

stylus_predictor/r/linear/MatMul;stylus_predictor/r/linear/Add f4 [64]
-0.50561875 -1.052509 0.10331497 -0.418726 1.0281593 -0.67795265 -0.17297582 -0.28720182
-0.35779205 0.030619727 -0.029579991 -0.30704498 -0.61751866 0.47300705 -0.60834587 0.8424753
-0.44019115 -0.05005762 -0.30447468 -1.2600381 0.6056821 -0.8146258 0.06642869 0.39520326
-0.4510169 -0.03692317 -0.55435914 -1.1797951 -0.54176813 -0.09287456 -0.38945383 -0.5919955
-0.31987932 0.07556692 0.18653414 -0.8494909 -0.33273414 0.47517082 0.14501937 -0.24804352
-0.049191713 -0.9526928 0.473251 -0.4690561 0.100091204 0.016842455 -0.76950103 0.47557238
-1.1407038 -0.3714257 0.2220064 0.84321254 -0.30973154 -0.4746354 -1.7053958 -0.6711228
-1.006529 -1.0316238 1.5173681 -0.67358273 -0.43691045 -1.3115367 -0.25693557 0.43853185
00000000: 3b70 01bf 9db8 86bf cd96 d33d 4163 d6be
00000010: b99a 833f 4e8e 2dbf 9320 31be 1e0c 93be
00000020: 8530 b7be 39d6 fa3c bd51 f2bc 0035 9dbe
00000030: b415 1ebf fb2d f23e 8ebc 1bbf 76ac 573f
00000040: bc60 e1be 3809 4dbd 1be4 9bbe ee48 a1bf
00000050: fb0d 1b3f 518b 50bf c40b 883d 1558 ca3e
00000060: b0eb e6be c03c 17bd 7bea 0dbf 8703 97bf
00000070: 51b1 0abf 0435 bebd 7e66 c7be 048d 17bf
00000080: 39c7 a3be d4c2 9a3d ce02 3f3e 3c78 59bf
00000090: 215c aabe 9749 f33e f57f 143e 1fff 7dbe
000000a0: 407d 49bd ade3 73bf f44d f23e 1f28 f0be
000000b0: 9efc cc3d 30f9 893c 05fe 44bf 397e f33e
000000c0: 9502 92bf 822b bebe a555 633e c7dc 573f
000000d0: 2295 9ebe 6903 f3be 694a dabf b4ce 2bbf
000000e0: f1d5 80bf 400c 84bf 1e39 c23f eb6f 2cbf
000000f0: bab2 dfbe 6fe0 a7bf 0f8d 83be 3f87 e03e

stylus_predictor/confidence/confidence_0/Add/ReadVariableOp f4 [64]
-0.21735804 0.113878414 -0.2970351 0.2978105 -0.256331 -0.25029728 -0.8907369 0.3503777
-0.16860065 0.03578784 -0.08885831 -0.38973352 0.3198227 -0.31627536 0.04119181 -0.45515126
-0.20198555 -0.2012888 -0.050003763 -0.1037036 -0.6325791 -0.53949517 -0.53200394 -0.8765916
-0.30251485 -0.49819258 -0.45698884 -0.39401564 0.33044782 -0.097416654 -0.24835987 -0.5834952
-0.42307365 -0.6026814 -0.62304544 0.2408714 0.53180575 -0.13825025 0.0015866496 -0.21560322
0.15761365 0.12442764 -0.2945753 -0.021494117 -0.72641134 0.14763373 -0.7784449 -0.17433475
-0.17809907 -0.32517764 0.26741642 0.17328596 -0.19639364 -0.43569997 0.69812447 -0.75968796
-0.37324408 -0.017851494 -0.49199918 -0.4751372 -0.05079237 -0.026216656 0.00019523007 -0.50246316
00000000: 1b93 5ebe 1639 e93d fc14 98be 9e7a 983e
00000010: d13d 83be f726 80be 5507 64bf b564 b33e
00000020: a6a5 2cbe 4596 123d 58fb b5bd 278b c7be
00000030: cdbf a33e d8ee a1be beb8 283d 9609 e9be
00000040: 4dd5 4ebe a71e 4ebe bfd0 4cbd 8e62 d4bd
00000050: b4f0 21bf 5b1c 0abf 6931 08bf 4f68 60bf
00000060: 3ae3 9abe 1913 ffbe 71fa e9be 6bbc c9be
00000070: 7530 a93e 6282 c7bd 0d52 7ebe f15f 15bf
00000080: 1c9d d8be 5449 1abf e87f 1fbf fea6 763e
00000090: 6c24 083f 7991 0dbe 20f7 cf3a 17c7 5cbe
000000a0: 7965 213e ebd3 fe3d 93d2 96be 6e14 b0bc
000000b0: 18f6 39bf 4c2d 173e 2a48 47bf cf84 32be
000000c0: 9a5f 36be af7d a6be ceea 883e e071 313e
000000d0: 6a1b 49be 1114 dfbe 49b8 323f e97a 42bf
000000e0: d919 bfbe 4c3d 92bc 51e7 fbbe 2f45 f3be
000000f0: a90b 50bd 50c4 d6bc acb6 4c39 6da1 00bf

stylus_predictor/confidence/confidence_1/Add/ReadVariableOp f4 [64]
-0.668486 -0.085354775 0.02372549 -0.21919183 0.79941064 -0.08858819 0.20441487 -0.49183556
-0.18184476 0.03915886 -0.62705505 -0.659964 0.16751438 0.74561507 -0.08672447 0.4672142
0.052682295 0.032830298 -0.17376691 -0.06957598 -0.081007026 -0.5615795 -0.43450534 -0.15077063
-0.049432125 -0.21697176 -0.16851681 0.07017523 -0.7561218 0.2652809 -0.32815558 0.15480873
0.3600747 0.13368535 -0.54583484 -0.5001645 -0.32567528 -0.13741486 0.06477346 -0.09536618
0.28733364 0.32795405 -0.5278867 0.14690275 -0.3438635 0.4778357 -0.7096527 0.25711265
0.15280941 -0.08566054 -0.117308535 -0.1293265 -0.008154366 -0.2559667 -0.047023613 -0.02336776
-0.30792606 0.060584553 0.14266045 -0.49462104 0.26421058 0.027706023 0.40403432 -0.24266154
00000000: e621 2bbf 7cce aebd f55b c23c d373 60be
00000010: 2da6 4c3f ba6d b5bd 2252 513e dfd1 fbbe
00000020: 8335 3abe 0a65 203d ae86 20bf 67f3 28bf
00000030: e488 2b3e a1e0 3e3f 999c b1bd b336 ef3e
00000040: 64c9 573d 1079 063d f4ef 31be da7d 8ebd
00000050: 03e7 a5bd adc3 0fbf 7c77 debe 9e63 1abe
00000060: 5779 4abd d82d 5ebe ac8f 2cbe 08b8 8f3d
00000070: 3391 41bf e6d2 873e 0204 a8be 2e86 1e3e
00000080: b65b b83e d0e4 083e d5bb 0bbf c80a 00bf
00000090: e9be a6be 7bb6 0cbe f3a7 843d 584f c3bd
000000a0: 651d 933e 98e9 a73e 9523 07bf ad6d 163e
000000b0: e00e b0be e2a6 f43e cdab 35bf 45a4 833e
000000c0: 127a 1c3e cb6e afbd 753f f0bd 2b6e 04be
000000d0: e499 05bc 110e 83be d59b 40bd bf6d bfbc
000000e0: 7ca8 9dbe 8227 783d 9515 123e f83e fdbe
000000f0: 9c46 873e bef7 e23c 96dd ce3e 447c 78be

stylus_predictor/confidence/confidence_output/Add/ReadVariableOp f4 [5]
-0.09089077 0.03375426 0.034130022 0.17566925 0.0025283836
00000000: f124 babd e841 0a3d eccb 0b3d a4e2 333e
00000010: 3db3 253b

stylus_predictor/r/linear/Add/ReadVariableOp f4 [64]
0.20836127 -0.24291767 0.07935054 -0.093603015 0.34096584 -0.14111938 -0.023136979 0.07559583
-0.2569679 -0.19979885 0.107692555 -0.17836614 -0.13468972 -0.19095072 -0.28303665 0.31650364
-0.1884116 -0.05084401 -0.17131017 -0.27228454 0.13574865 -0.27353272 0.07118908 -0.044408955
-0.064229466 -0.13927855 -0.09148695 -0.29756036 -0.36625463 -0.1251532 -0.19004302 -0.34029713
-0.0881717 -0.016277188 -0.07185381 -0.27335307 -0.09543827 0.08418467 -0.014247599 -0.13927102
-0.04200038 -0.07803014 0.1297624 -0.17009999 0.16594198 0.07445235 -0.30640104 0.023779534
-0.2646192 0.054073263 -0.1793063 0.05552853 -0.10562837 -0.16604982 -0.51515794 -0.07601583
-0.6150784 -0.36866552 0.27751085 -0.24311472 -0.35578313 -0.3859565 -0.039547827 0.011304431
00000000: a85c 553e 69bf 78be 8982 a23d f0b2 bfbd
00000010: 1393 ae3e 9981 10be c389 bdbc fdd1 9a3d
00000020: 4c91 83be 1298 4cbe ea8d dc3d 9da5 36be
00000030: 1aec 09be 9688 43be 2eea 90be c40c a23e
00000040: f8ee 40be cf41 50bd ef6b 2fbe e168 8bbe
00000050: b201 0b3e 7b0c 8cbe 95cb 913d 2ae6 35bd
00000060: bd8a 83bd 099f 0ebe 835d bbbd d559 98be
00000070: ba85 bbbe 2928 00be a39a 42be 6d3b aebe
00000080: 5d93 b4bd bd57 85bc 1728 93bd eff4 8bbe
00000090: 2475 c3bd 0369 ac3d c36e 69bc 109d 0ebe
000000a0: 9708 2cbd 44ce 9fbd 6fe0 043e b12e 2ebe
000000b0: b2ec 293e 797a 983d 99e0 9cbe 4ccd c23c
000000c0: 2b7c 87be ed7b 5d3d 129c 37be e271 633d
000000d0: b053 d8bd f708 2abe 64e1 03bf 30ae 9bbd
000000e0: c775 1dbf bac1 bcbe e715 8e3e 11f3 78be
000000f0: 3529 b6be 179c c5be e7fc 21bd 3836 393c

stylus_predictor/r/linear/Add_1/ReadVariableOp f4 [64]
0.0006359297 -0.033665013 -0.06959016 0.18956059 -0.37539974 -0.344858 -0.20449528 -0.09113562
-0.3000534 -0.039275702 -0.22313152 0.019187005 -0.15294316 -0.037623238 -0.41104394 0.11380989
-0.04633641 -0.24600399 -0.13661638 0.14841668 -0.10381096 0.093764596 0.101416446 -0.2335839
0.11273603 -0.21950433 0.0069600013 -0.07317218 0.12541912 0.037154708 -0.023016727 0.19467647
0.07990193 -0.030418241 -0.13318293 0.01956088 0.2305904 -0.038938064 -0.37095168 -0.018416898
-0.41718295 0.038545117 0.02459746 -0.2572432 -0.10138681 -0.0454984 0.11181124 -0.08007056
-0.12523489 -0.025807569 -0.048227873 0.10297054 -0.15503944 -0.10181926 0.24579771 0.02367087
0.00972926 -0.10078961 -0.012124876 0.02217038 -0.023635628 -0.09033249 0.030025214 -0.2836976
00000000: 85b4 263a 53e4 09bd 4985 8ebd 2c1c 423e
00000010: 6534 c0be 3a91 b0be 3667 51be 50a5 babd
00000020: 99a0 99be 8fdf 20bd 977c 64be 112e 9d3c
00000030: 229d 1cbe d31a 1abd 5a74 d2be 2915 e93d
00000040: 3fcb 3dbd 78e8 7bbe 2ae5 0bbe 8bfa 173e
00000050: d79a d4bd a707 c03d 6db3 cf3d 9e30 6fbe
00000060: 26e2 e63d bec5 60be b910 e43b 4cdb 95bd
00000070: df6d 003e 892f 183d 938d bcbc 4559 473e
00000080: a0a3 a33d ad2f f9bc 1b61 08be 233e a03c
00000090: e41f 6c3e 857d 1fbd 61ed bdbe 09df 96bc
000000a0: 0199 d5be 7ce1 1d3d 9d80 c93c 61b5 83be
000000b0: e3a3 cfbd 885c 3abd 4bfd e43d 09fc a3bd
000000c0: 933d 00be 656a d3bc 978a 45bd 38e2 d23d
000000d0: a9c2 1ebe 9e86 d0bd 65b2 7b3e 6ae9 c13c
000000e0: 7967 1f3c c86a cebd 6aa7 46bc a89e b53c
000000f0: 819f c1bc 3e00 b9bd 70f7 f53c d040 91be

stylus_predictor/pressure/linear/Add/ReadVariableOp f4 [64]
-0.059194993 0.026861189 -0.023922216 0.07369437 0.030921038 0.0540967 -0.021459216 0.015888633
0.0048281583 -0.043993592 0.08630703 0.028927086 0.27370328 0.04586567 -0.009806804 -0.09615279
0.032770663 0.06125721 0.14074184 0.13676696 0.019623144 -0.034148388 0.034591626 0.07113485
0.038064945 -0.02734551 -0.20363387 0.058049597 0.07516962 0.019123971 0.025436606 0.07978983
-0.026111366 -0.037127092 0.07255909 0.042842377 -0.019532356 -0.0055925366 0.027553622 0.052617505
-0.057444524 0.0643819 0.028032137 -0.024897078 0.03869975 0.10419831 -0.23959005 -0.19224326
0.02738805 0.068765275 0.10567449 0.037211947 -0.05494485 0.06840179 -0.2735613 0.0009101735
0.028092189 0.0006269027 0.033198528 0.07953512 0.15405434 -0.28404826 0.16615634 0.056379195
00000000: 7376 72bd ff0b dc3c 86f8 c3bc 13ed 963d
00000010: 1e4e fd3c 8094 5d3d 3dcb afbc e128 823c
00000020: 8735 9e3b a032 34bd bdc1 b03d 7ff8 ec3c
00000030: d622 8c3e a4dd 3b3d b8ac 20bc c1eb c4bd
00000040: 883a 063d d7e8 7a3d a11e 103e a30c 0c3e
00000050: b7c0 a03c 2edf 0bbd f3af 0d3d 26af 913d
00000060: fde9 1b3d b103 e0bc 6685 50be 6ac5 6d3d
00000070: 88f2 993d e0a9 9c3c 6e60 d03c da68 a33d
00000080: 81e7 d5bc 9412 18bd dc99 943d 7d7b 2f3d
00000090: 5202 a0bc 9941 b7bb 22b8 e13c 7485 573d
000000a0: f34a 6bbd a8da 833d a7a3 e53c f5f4 cbbc
000000b0: a183 1e3d ec65 d53d 1857 75be 6bdb 44be
000000c0: e75c e03c cfd4 8c3d de6b d83d 8e6b 183d
000000d0: da0d 61bd 3d16 8c3d 3a10 8cbe b698 6e3a
000000e0: 9721 e63c ba56 243a 2efb 073d 4fe3 a23d
000000f0: 6cc0 1d3e c66e 91be e324 2a3e dfed 663d

stylus_predictor/pressure/linear/Add_1/ReadVariableOp f4 [64]
0.031526342 0.025797976 0.018267797 0.020261783 -0.07217235 0.03768894 0.06734915 -0.010359491
0.0016820687 0.028702447 0.02891407 0.004042714 0.18073845 -0.004933159 0.061555736 0.031591427
0.06587145 -0.031601865 -0.016430872 0.25730398 0.015210137 0.017851695 -0.1423611 -0.008115099
0.04370609 0.2202683 0.05371816 0.10253956 -0.0047508343 -0.051152002 -0.0665315 -0.022093903
0.055058226 0.019102413 0.005591218 0.033482667 0.016564062 -0.033058155 -0.028900092 -0.038115364
0.0013407554 0.029364565 0.05208605 0.018791543 -0.027565291 0.068196185 0.06366953 0.026044512
-0.00033859286 -0.048984718 0.031121263 -0.035425603 0.027456217 -0.006438457 -0.015692929 -0.022028284
0.036808055 0.14597636 0.021098522 -0.020501016 0.019582903 0.04918031 0.006395838 0.020675654
00000000: c421 013d 4756 d33c 59a6 953c 0afc a53c
00000010: 19cf 93bd b85f 1a3d 5aee 893d dbba 29bc
00000020: dc78 dc3a 6521 eb3c 33dd ec3c be78 843b
00000030: 8013 393e 56a6 a1bb de21 7c3d 0366 013d
00000040: 9ce7 863d f570 01bd 099a 86bc 59bd 833e
00000050: f033 793c b83d 923c 1cc7 11be 31f5 04bc
00000060: 2805 333d 038e 613e 9307 5c3d 4300 d23d
00000070: e3ac 9bbb c384 51bd ab41 88bd 46fe b4bc
00000080: bc84 613d aa7c 9c3c 8936 b73b 1f25 093d
00000090: 5bb1 873c fd67 07bd e3bf ecbc db1e 1cbd
000000a0: 49bc af3a f58d f03c 2f58 553d b9f0 993c
000000b0: 9bd0 e1bc 71aa 8b3d 2c65 823d 4d5b d53c
000000c0: 2a85 b1b9 33a4 48bd 05f2 fe3c 701a 11bd
000000d0: dceb e03c b1f9 d2bb 758e 80bc a974 b4bc
000000e0: 0bc4 163d d47a 153e cfd6 ac3c bff1 a7bc
000000f0: 536c a03c 4b71 493d 2e94 d13b fd5f a93c

stylus_predictor/phi/linear/Add/ReadVariableOp f4 [64]
-0.042167157 0.030113239 0.032486286 0.04259746 0.018119326 0.05675172 -0.3581805 -0.045187533
0.012391941 -0.0023574072 -0.0111270575 -0.03193733 -0.10253132 -0.031204088 -0.048507854 0.021263294
0.05960781 0.14772426 -0.047922544 0.18556489 -0.00042081106 0.081268415 -0.031483673 -0.058491863
-0.022532016 -0.021409947 -0.021077039 -0.02872323 -0.16479346 -0.1371857 0.049681574 0.033351004
0.0335368 0.14125612 -0.022132447 -0.3555873 0.011827344 0.09044722 0.0067280144 0.24381201
-0.00090561033 0.027053326 -0.045355115 -0.18690734 0.0053727753 0.11295191 -0.021965764 0.04717724
0.08467462 -0.07548335 -0.042303022 0.061121248 0.03593584 -0.020543627 0.00016055821 0.024197897
0.014094158 0.068961695 0.12534682 -0.018356375 -0.005790627 0.029271392 0.12993439 -0.03151532
00000000: 78b7 2cbd 0ab0 f63c 5710 053d ad7a 2e3d
00000010: fb6e 943c 7e74 683d 6f63 b7be 9016 39bd
00000020: 9107 4b3c bb7e 1abb 434e 36bc b8d0 02bd
00000030: f1fb d1bd b79f ffbc 2cb0 46bd 5c30 ae3c
00000040: 5227 743d 0745 173e 6e4a 44bd b904 3e3e
00000050: 4ea0 dcb9 0e70 a63d 06f5 00bd 2a95 6fbd
00000060: 1095 b8bc ea63 afbc c1a9 acbc fb4c ebbc
00000070: 9ebf 28be 687a 0cbe e87e 4b3d 109b 083d
00000080: e25d 093d 72a5 103e 1b4f b5bc 8a0f b6be
00000090: 7ac7 413c 643c b93d ad76 dc3b dba9 793e
000000a0: 7b66 6dba f09e dd3c 49c6 39bd a364 3fbe
000000b0: 1b0e b03b 5553 e73d 8cf1 b3bc ec3c 413d
000000c0: e369 ad3d 0497 9abd ef45 2dbd 465a 7a3d
000000d0: 7631 133d 1c4b a8bc 845b 2839 ab3a c63c
000000e0: 2feb 663c ca3b 8d3d eb5a 003e 1c60 96bc
000000f0: 4dbf bdbb 8fca ef3c 850d 053e 3516 01bd

stylus_predictor/phi/linear/Add_1/ReadVariableOp f4 [64]
0.03907912 0.009247356 -0.099085234 0.039286055 0.022863967 0.0015186791 0.0015486759 -0.017756995
-0.010483184 -0.0049287393 0.03340206 -0.031059302 0.0042971014 0.0037388052 -0.08045281 -0.0064182766
-0.040234704 -0.01441202 0.0092732925 -0.5776496 0.007297902 0.008019127 -0.116722204 0.014759254
-0.020899313 -0.33519423 0.00042882335 0.048924465 -0.019499438 -0.056520656 -0.00052532565 -0.04440508
0.001236278 0.06408571 -0.022765048 0.014817409 0.033581413 -0.053125117 -0.017236248 0.04849391
-0.0026839718 0.052691918 -0.08559986 0.0076373965 -0.013114089 -0.042291313 0.08315996 -0.001645336
0.020952007 -0.010875099 -0.1291021 0.00043663784 0.090021126 -0.23115584 0.048926163 0.020726223
-0.008048474 -0.00094332406 0.10655592 -0.007259907 -0.050796967 -0.034107417 0.04941005 -0.0023513031
00000000: 6d11 203d 3982 173c 33ed cabd 6aea 203d
00000010: 374d bb3c 6a0e c73a f1fc ca3a 1e77 91bc
00000020: a9c1 2bbc 4381 a1bb 99d0 083d 1470 febc
00000030: b3ce 8c3b be06 753b 71c4 a4bd 6850 d2bb
00000040: 25cd 24bd 6520 6cbc 02ef 173c d8e0 13bf
00000050: 3d23 ef3b a862 033c 0d0c efbd ccd0 713c
00000060: 0935 abbc 949e abbe b2d3 e039 0565 483d
00000070: 49bd 9fbc 3482 67bd 02b6 09ba 1ae2 35bd
00000080: 9b0a a23a 5e3f 833d c47d babc b8c4 723c
00000090: aa8c 093d b999 59bd 0833 8dbc 8da1 463d
000000a0: 93e5 2fbb 7bd3 573d fb4e afbd 2043 fa3b
000000b0: 7adc 56bc a839 2dbd c54f aa3d 51a8 d7ba
000000c0: 8ba3 ab3c 792d 32bc 5733 04be 8aec e439
000000d0: ff5c b83d 1eb4 6cbe cd66 483d 0aca a93c
000000e0: bfdd 03bc 6849 77ba fd39 da3d 84e4 edbb
000000f0: 7b10 50bd 38b4 0bbd 3162 4a3d 5218 1abb

stylus_predictor/phi/embedding/MatMul1 f4 [64, 25]
-0.067386076 -0.03839175 0.0027673203 0.032261796 -0.019367304 0.21596624 -0.048711695 -0.09001937
0.19197032 0.063967876 0.13351522 0.0966852 -0.21071438 -0.19480139 0.27094364 -0.25610614
0.060477484 -0.07617907 -0.0805451 0.25739136 0.11233205 -0.20177831 0.2186965 -0.24116191
-0.1364666 0.10345233 0.12306862 -0.19524524 -0.20592509 0.15746874 0.12749319 0.057630513
0.23981135 0.32008007 0.12961826 0.076698154 0.071537465 0.055257518 -0.010041908 0.039734654
-0.118589506 0.114519134 0.24748707 0.17423142 0.027858049 0.26831248 -0.27800477 0.23586692
-0.13978483 -0.17691788 0.2789586 0.14900346 -0.26806417 0.03630847 -0.2880051 0.053287778
0.39849606 0.34339014 0.120061986 -0.20087197 0.26944023 0.090302326 -0.10678794 -0.35411045
0.24298482 0.18658003 -0.25638574 -0.075571455 -0.096183136 -0.1864363 -0.105025 0.28132588
0.07366703 0.1252403 -0.13110167 -0.021754468 -0.063220866 0.004829205 -0.007181571 -0.11553043
-0.07502995 0.16663069 -0.21856984 -0.3388341 0.103641294 -0.03724903 0.028177064 -0.052880142
-0.031563103 0.02248099 0.33123246 0.1350284 -0.32923955 -0.14136826 0.013974886 -0.030940771
-0.28320575 0.042495593 0.0775551 0.08205444 0.19950433 -0.23245764 -0.009062205 0.023836883
0.09121863 -0.10944002 -0.18729912 0.16751365 -0.08942813 0.26436323 0.0378089 0.04171839
0.12619826 0.38511845 -0.07302493 -0.21449833 0.11634435 -0.09400087 0.17662537 -0.08925704
0.12200768 0.06665217 -0.1051421 -0.030264387 0.05924631 -0.0684457 0.1371954 -0.12043193
0.1107395 -0.28247613 -0.13103603 -0.16387196 0.14970148 -0.059463594 -0.16522971 0.10950826
0.42436233 0.12608398 0.19758178 0.12678131 -0.21389374 0.2707663 0.053068027 0.3667038
-0.081902675 0.10033154 -0.03935911 0.19763683 0.2697795 -0.21583173 -0.21055266 0.0072615934
0.048775416 -0.2869057 -0.07155723 -0.22073717 -0.45249817 -0.049425837 0.14108606 0.09138656
-0.06597079 -0.19127865 0.25878802 0.17271265 -0.26803538 -0.3561345 0.032509495 0.13606918
-0.063180625 0.12654781 -0.3086037 -0.15556939 -0.15326461 -0.26597658 0.3101391 0.09946197
-0.13091737 -0.056708347 -0.03699733 -0.037673555 0.20438693 -0.09710406 0.1137737 0.21815524
-0.44912335 -0.09029656 -0.23580499 -0.28431168 -0.04352051 -0.20875369 -0.18380156 0.13663422
0.043519765 -0.0028442268 0.07116096 0.17753391 -0.26667154 -0.12526782 -0.10067989 -0.41590986
0.14301686 0.051702287 -0.0068363803 -0.13126864 -0.033960044 -0.14813523 -0.17563502 -0.24797101
-0.5533076 -0.13250583 -0.06862773 0.2801243 0.22804287 0.0010436409 -0.026630258 -0.24711731
0.23546018 0.027600925 -0.02557992 0.44323498 -0.09439154 0.08747476 0.14597854 0.018852992
0.24141102 0.028902523 0.32730925 -0.06555229 0.07158331 0.22894043 0.025533013 -0.13664521
-0.044942178 0.29161185 -0.15200227 -0.10633873 0.36490265 -0.12406999 0.09648258 -0.04923884
-0.04810665 0.08075796 0.22539583 -0.10633929 0.20588134 -0.1867956 0.20639934 0.06635651
0.16602014 0.24249993 -0.050421927 0.016261276 -0.1519355 -0.15116578 -0.1084404 -0.12673403
00000000: b601 8abd ab40 1dbd ee5b 353b f224 043d
00000010: 2ea8 9ebc 4126 5d3e ea85 47bd 135c b8bd
00000020: de93 443e 9701 833d 37b8 083e e402 c63d
00000030: 83c5 57be 047a 47be 20b9 8a3e 5820 83be
00000040: 3db7 773d c603 9cbd d4f4 a4bd cdc8 833e
00000050: 590e e63d f99e 4ebe faf1 5f3e 26f3 76be
00000060: e6bd 0bbe d1de d33d 670b fc3d 5eee 47be
00000070: 07de 52be 7c3f 213e 938d 023e f90d 6c3d
00000080: 1b91 753e 89e1 a33e a6ba 043e ec13 9d3d
00000090: 3c82 923d b555 623d d186 24bc cec0 223d
000000a0: 0edf f2bd 0289 ea3d 406d 7d3e b969 323e
000000b0: 9036 e43c 4160 893e a456 8ebe 1987 713e
000000c0: c123 0fbe f629 35be a9d3 8e3e 5d94 183e
000000d0: b53f 89be 31b8 143d 6875 93be 4944 5a3d
000000e0: ad07 cc3e d5d0 af3e 0fe3 f53d 62b1 4dbe
000000f0: 12f4 893e 6df0 b83d a3b3 dabd f74d b5be
00000100: 03d1 783e d60e 3f3e fe44 83be 35c5 9abd
00000110: aafb c4bd 28e9 3ebe 5917 d7bd f209 903e
00000120: bdde 963d fe3e 003e 843f 06be 6d36 b2bc
00000130: f179 81bd 4f3e 9e3b 6253 ebbb 389b ecbd
00000140: 4da9 99bd 3ca1 2a3e c6d0 5fbe aa7b adbe
00000150: e341 d43d 7092 18bd 96d3 e63c d998 58bd
00000160: 5048 01bd 0e2a b83c 4d97 a93e e344 0a3e
00000170: 1692 a8be d7c2 10be ecf6 643c 8077 fdbc
00000180: 5800 91be dc0f 2e3d 35d5 9e3d 290c a83d
00000190: dd4a 4c3e 6009 6ebe a579 14bc 9145 c33c
000001a0: d5d0 ba3d 1722 e0bd 57cb 3fbe b388 2b3e
000001b0: 1826 b7bd 9e5a 873e 81dd 1a3d e7e0 2a3d
000001c0: 1e3a 013e 3f2e c53e 188e 95bd 73a5 5bbe
000001d0: f245 ee3d 8783 c0bd 48dd 343e 65cc b6bd
000001e0: 2adf f93d ef80 883d be54 d7bd 05ed f7bc
000001f0: 42ac 723d 422d 8cbd f37c 0c3e 04a5 f6bd
00000200: 64cb e23d b6a0 90be 4f2e 06be 0dce 27be
00000210: 584b 193e 1990 73bd fa31 29be de45 e03d
00000220: 0546 d93e 291c 013e e152 4a3e f6d2 013e
00000230: f606 5bbe e1a1 8a3e dc5d 593d 9ac0 bb3e
00000240: 97bc a7bd 9f7a cd3d 0537 21bd 4f61 4a3e
00000250: 8a20 8a3e fe02 5dbe 1e9b 57be a9f2 ed3b
00000260: bbc8 473d 4ee5 92be 998c 92bd ed08 62be
00000270: d7ad e7be bf72 4abd dd78 103e e028 bb3d
00000280: b21b 87bd 8dde 43be dd7f 843e 96db 303e
00000290: ef3b 89be 4357 b6be ad28 053d b855 0b3e
000002a0: d864 81bd c095 013e 4e01 9ebe 954d 1fbe
000002b0: 66f1 1cbe 152e 88be 8dca 9e3e b8b2 cb3d
000002c0: 340f 06be 0347 68bd 838a 17bd 964f 1abd
000002d0: cf4a 513e 7ede c6bd 3002 e93d 1664 5f3e
000002e0: 7ff3 e5be 67ed b8bd dd76 71be 4d91 91be
000002f0: 9042 32bd 87c3 55be 7a36 3cbe d7e9 0b3e
00000300: c841 323d 3566 3abb d6bc 913d 73cb 353e
00000310: 2c89 88be 3546 00be 4231 cebd 23f2 d4be
00000320: 0373 123e c7c5 533d b703 e0bb 496b 06be
00000330: b019 0bbd c3b0 17be abd9 33be 1dec 7dbe
00000340: 91a5 0dbf 9caf 07be b28c 8cbd 746c 8f3e
00000350: 1284 693e c7ca 883a b327 dabc 520c 7dbe
00000360: 791c 713e 561b e23c fb8c d1bc b2ef e23e
00000370: 5a50 c1bd f825 b33d 667b 153e 9771 9a3c
00000380: 7334 773e fcc4 ec3c 1495 a73e 4740 86bd
00000390: 459a 923d 5c6f 6a3e 9c2a d13c b9ec 0bbe
000003a0: 4a15 38bd 264e 953e 7ca6 1bbe 1fc8 d9bd
000003b0: 85d4 ba3e 6818 febd a998 c53d aaae 49bd
000003c0: 7b0b 45bd 6e64 a53d 2ace 663e 6ac8 d9bd
000003d0: 8fd2 523e 5947 3fbe 595a 533e ece5 873d
000003e0: 2f01 2a3e e751 783e 3987 4ebd 5e36 853c
000003f0: fb94 1bbe 34cb 1abe 0016 debd 91c6 01be

stylus_predictor/phi/linear/MatMul_8 f4 [64, 64]
-0.022479817 0.067380704 -0.09136655 0.17323206 -0.053036176 0.044143084 0.118642576 0.054857086
0.12831602 0.14713317 -0.027967457 -0.16447508 -0.016185166 -0.11350269 -0.11662416 0.025378045
-0.00509459 0.15505968 0.122034095 -0.053688865 -0.1275648 0.004498932 -0.10026529 0.10880748
-0.11844339 0.24310702 -0.1615525 -0.026709184 -0.022243286 0.052077938 -0.16626705 -0.2064527
0.16309495 -0.1370616 -0.03050738 0.13036473 -0.16124524 0.035406977 0.19305345 -0.0100014405
-0.07765306 -0.021038054 -0.34385931 -0.023236198 0.07764285 -0.03590872 -0.062279407 0.030320711
0.086766146 -0.032444105 -0.017320545 0.07006423 -0.0720313 0.08578328 -0.03387556 -0.09468162
-0.13932988 0.08047286 0.086612396 0.046158705 -0.027492583 -0.15697275 -0.07793282 -0.08139151
0.23090039 0.073309705 0.1308001 -0.1251856 0.011630233 0.06844828 0.093963474 0.08002957
-0.07821623 0.052420903 0.08477116 0.00917218 -0.15261064 -0.09500546 0.34229589 0.14018631
-0.045957956 -0.01239531 0.24517098 -0.28479835 0.021556737 0.078910455 0.20920846 0.09437728
0.011079757 0.023329016 -0.1394457 -0.07462079 -0.13281079 -0.19117133 -0.034587137 -0.055953484
0.20965706 -0.0031598432 -0.23476705 -0.17526878 0.016552586 -0.15485665 0.1802775 0.24988501
0.1891459 -0.04568918 -0.19442973 0.09709581 -0.107370816 -0.08515674 0.094710685 0.009145345
-0.029196503 -0.09204018 -0.16775808 -0.13817237 -0.07808241 0.024413915 0.07684032 0.08477345
0.039170086 -0.052093625 -0.25148964 -0.0032561864 0.0048634494 0.020289913 -0.22619632 -0.046789244
-0.11868375 -0.14582896 -0.037142754 -0.02539921 -0.25698745 0.02783733 -0.011501891 -0.061107755
0.010361409 -0.109841436 -0.02065999 0.110486366 -0.110603616 -0.15709151 -0.19908985 0.07908993
0.118045434 0.12721194 0.07626632 0.20441534 0.18851347 0.008729891 0.0054362123 0.032581706
-0.21749504 0.12722485 0.13300985 0.09954824 -0.24549042 0.04955094 -0.0952593 0.013545674
0.012781924 -0.08021545 0.09280868 -0.19382659 -0.079741634 -0.0058828634 -0.09682544 -0.20950828
0.019549035 0.091287054 -0.07808664 0.07261187 -0.017073583 0.13691293 0.19215043 -0.022163333
0.2491602 -0.10868455 0.033593565 0.018544415 -0.004083487 0.050273124 0.040170293 -0.18631075
0.07376947 0.1410084 -0.07654342 0.17285755 0.051337976 0.06688853 0.05124729 0.07220102
-0.20907687 -0.01744993 0.121611975 -0.026563684 -0.2116685 -0.06623396 -0.06947746 -0.19711435
-0.09643737 -0.18660349 -0.13671255 -0.20217858 0.057224464 -0.08826934 0.15545338 -0.11788125
-0.01604489 0.020739064 0.072965086 -0.18237533 0.16992094 -0.028536921 -0.003960542 -0.06327141
-0.22901236 -0.09060162 -0.11836255 -0.14581756 0.17253284 0.021568572 -0.0051048873 -0.1759995
-0.09651903 0.044989534 -0.10631096 -0.19987367 0.06067285 0.026575552 0.1269226 -0.08542133
-0.08561951 -0.14829089 0.23720327 -0.06501887 -0.16263287 0.16079645 0.11756924 -0.022403972
-0.15339854 0.008264367 -0.08985782 0.055375155 0.22992676 -0.007958639 -0.0365243 -0.13321726
0.09679314 0.18079673 -0.020419827 0.021012401 0.057642914 -0.015956854 -0.15471107 0.051968742
00000000: 9827 b8bc e5fe 893d 631e bbbd bf63 313e
00000010: 763c 59bd 61cf 343d e1fa f23d d3b1 603d
00000020: 4665 033e 14aa 163e 021c e5bc 286c 28be
00000030: c196 84bc 1974 e8bd a6d8 eebd 9ee5 cf3c
00000040: 85f0 a6bb f7c7 1e3e 03ed f93d dbe8 5bbd
00000050: 59a0 02be c76b 933b e357 cdbd 75d6 de3d
00000060: 7392 f2bd 0cf1 783e 056e 25be 38cd dabc
00000070: 8d37 b6bc ad4f 553d e941 2abe 5668 53be
00000080: 5d02 273e e059 0cbe 9dea f9bc 557e 053e
00000090: 791d 25be e806 113d ceaf 453e 15dd 23bc
000000a0: 9108 9fbd ff57 acbc 540e b0be d759 bebc
000000b0: 3703 9f3d 0615 13bd b118 7fbd 2463 f83c
000000c0: 73b2 b13d 1ce4 04bd d1e3 8dbc d67d 8f3d
000000d0: 2585 93bd 25af af3d 19c1 0abd 70e8 c1bd
000000e0: 7eac 0ebe f4ce a43d d761 b13d e910 3d3d
000000f0: 2038 e1bc 77bd 20be 3e9b 9fbd 98b0 a6bd
00000100: 2771 6c3e 6623 963d 76f0 053e a730 00be
00000110: bc8c 3e3c 9d2e 8c3d ec6f c03d 8be6 a33d
00000120: d52f a0bd 4db7 563d 809c ad3d e946 163c
00000130: f745 1cbe 3992 c2bd 6841 af3e 008d 0f3e
00000140: 693e 3cbd b315 4bbc 1a0e 7b3e 17d1 91be
00000150: c197 b03c ce9b a13d be3a 563e e048 c13d
00000160: de87 353c 7e1c bf3c dbca 0ebe c9d2 98bd
00000170: 8dff 07be 6bc2 43be 3eab 0dbd 7b2f 65bd
00000180: 57b0 563e 5f15 4fbb c666 70be a979 33be
00000190: 4a99 873c be92 1ebe aa9a 383e dbe1 7f3e
000001a0: 76af 413e 9424 3bbd 9618 47be 2bda c63d
000001b0: 3be5 dbbd a866 aebd adf7 c13d 5bd6 153c
000001c0: 812d efbc 907f bcbd c6c8 2bbe 0f7d 0dbe
000001d0: ace9 9fbd b1ff c73c 755e 9d3d b49d ad3d
000001e0: d070 203d 2060 55bd 40c3 80be be65 55bb
000001f0: 925d 9f3b 0837 a63c 02a0 67be 14a6 3fbd
00000200: 7710 f3bd 3054 15be 0023 18bd 0112 d0bc
00000210: dc93 83be 1d0b e43c 6d72 3cbc 204c 7abd
00000220: e6c2 293c 8cf4 e0bd 243f a9bc ad46 e23d
00000230: 2684 e2bd 99dc 20be 36de 4bbe e7f9 a13d
00000240: cec1 f13d d943 023e 8431 9c3d 4152 513e
00000250: ad09 413e d107 0f3c 4122 b23b 6574 053d
00000260: 05b7 5ebe 3b47 023e bc33 083e f3df cb3d
00000270: d761 7bbe edf5 4a3d 4f17 c3bd adee 5d3c
00000280: 466b 513c ff47 a4bd 7a12 be3d 7a7a 46be
00000290: 954f a3bd 09c5 c0bb 6b4c c6bd 5789 56be
000002a0: 4c25 a03c b5f4 ba3d e3eb 9fbd 88b5 943d
000002b0: e6dd 8bbc e732 0c3e 15c3 443e e18f b5bc
000002c0: da23 7f3e 0196 debd 6899 093d 75ea 973c
000002d0: c6ce 85bb 31eb 4d3d 9b89 243d 3fc8 3ebe
000002e0: 7314 973d 8264 103e ccc2 9cbd 9201 313e
000002f0: c547 523d dbfc 883d aee8 513d 21de 933d
00000300: 3f18 56be 28f3 8ebc b30f f93d 159c d9bc
00000310: a1bf 58be aca5 87bd 334a 8ebd 58d8 49be
00000320: f580 c5bd fc14 3fbe 60fe 0bbe e707 4fbe
00000330: 3364 6a3d 8ec6 b4bd 2c2f 1f3e ba6b f1bd
00000340: 9370 83bc f8e4 a93c b86e 953d 99c0 3abe
00000350: c1ff 2d3e 43c6 e9bc 6fc7 81bb 7194 81bd
00000360: 3782 6abe 588d b9bd 1168 f2bd 3351 15be
00000370: 73ac 303e 93b0 b03c e646 a7bb 3739 34be
00000380: c5ab c5bd f246 383d 90b9 d9bd afab 4cbe
00000390: 1884 783d f9b4 d93c 00f8 013e 61f1 aebd
000003a0: 4859 afbd 91d9 17be 6ae5 723e 9d28 85bd
000003b0: 3b89 26be d3a7 243e 24c8 f03d 8988 b7bc
000003c0: 8214 1dbe 4467 073c 6007 b8bd 0fd1 623d
000003d0: ec71 6b3e f464 02bc 819a 15bd 1b6a 08be
000003e0: 7b3b c63d c722 393e 7b47 a7bc 3322 ac3c
000003f0: fa1a 6c3d f3b7 82bc 946c 1ebe 2ddd 543d

stylus_predictor/phi/linear/MatMul_9 f4 [64, 64]
0.041560303 0.037728097 0.061894987 -0.03566061 0.078962944 -0.46115854 -0.21404704 -0.02605608
0.10465737 0.08623253 0.0145474505 0.048665307 -0.30605733 -0.17914277 -0.08808557 -0.2285025
0.081744514 -0.21202789 0.07510392 -0.14441876 0.023167195 -0.12047231 0.005891935 -0.17280906
0.04145929 -0.012992745 -0.15887311 0.12566514 -0.1728073 0.16994047 0.13064171 -0.37626782
-0.11229997 0.06149493 0.09904875 -0.19911702 -0.18949656 -0.30755693 0.08104029 0.13534385
-0.006735786 -0.10146808 0.0765253 0.05323505 -0.112694845 -0.0691027 0.23571162 -0.022713037
-0.3406587 -0.062791325 0.21331792 -0.120150335 0.13232397 -0.09082604 -0.26706582 -0.043949377
0.12602252 -0.069524646 -0.093669355 -0.12060659 0.056999274 0.12487274 -0.1785395 -0.12869571
-0.03803338 0.10817446 -0.04573482 0.23048486 -0.013663887 0.03053499 -0.06411587 0.07370841
-0.13055503 0.1284071 0.105615616 0.034745213 -0.13157317 0.12308574 -0.001820758 0.11902979
0.17217067 0.049628686 -0.21289155 -0.10109192 -0.23896508 0.13065754 0.20580348 -0.028167117
-0.12976956 0.06763941 0.04244344 -0.11776202 -0.028792901 -0.016290862 -0.005526277 -0.11584894
0.088492826 0.18562597 -0.06466359 0.05970807 -0.043966655 -0.17288454 0.029949334 -0.032584358
0.14250322 -0.07569228 0.015249104 0.33497766 -0.09467679 0.024935529 -0.059378818 -0.051157076
0.07181234 -0.11712512 0.07330458 -0.01089447 0.25109518 -0.005870187 0.13707507 0.03505959
-0.046920944 0.009570492 0.09020938 -0.0148953125 0.069271676 -0.0664936 -0.0010222507 -0.1586902
-0.030769492 -0.02158041 -0.24450238 0.050588448 0.105125785 -0.49718693 0.1550614 0.09062948
-0.08468273 -0.019157022 0.015877148 -0.050370906 -0.03307689 0.1401411 -0.056361064 -0.103725396
-0.11157167 -0.065937996 0.05940163 0.1271534 0.0272313 0.03241057 0.04080233 0.0922273
0.075109586 0.059680693 0.0012191818 -0.060324237 -0.13296601 -0.019451484 0.3285656 -0.3258156
-0.054464206 0.091037326 0.021125307 -0.23164688 -0.2441168 0.10046611 -0.001400176 0.2712559
-0.30408818 -0.072897576 -0.007884108 -0.001696505 -0.09846083 0.15833072 -0.06906492 -0.07345117
-0.15176772 0.16650341 0.16944115 0.0531466 -0.05663694 0.051483043 0.11800166 -0.171616
-0.20678362 0.011434114 0.26280016 0.13732521 0.106514364 0.02755886 -0.1281843 -0.08187148
0.0640472 -0.06569866 -0.11257559 0.04334311 -0.08985224 -0.034474246 -0.014096656 0.03345303
-0.16043797 -0.0684321 0.0018397372 -0.1509065 0.027093038 -0.15492347 -0.055702686 -0.12573676
0.03749852 -0.014342127 -0.098802105 -0.066517904 0.12788248 0.015026748 -0.3007977 -0.012179095
-0.042081196 -0.005659669 0.112855166 -0.16613425 -0.10178283 -0.054876182 0.021776488 0.0043284935
-0.103659034 0.1517942 -0.13204864 0.2748468 0.118078746 0.028594226 0.094977885 -0.1967515
0.029996326 0.20326082 0.13830385 0.011857935 -0.08190923 -0.07748903 -0.051054806 0.07237525
0.046923965 -0.17572798 -0.019357858 0.13178308 0.05905303 -0.08167031 -0.1047776 0.029370481
-0.072611146 0.04787581 0.12640473 0.083318055 0.110216 0.27534997 0.039534673 0.006140145
00000000: 233b 2a3d c788 1a3d 9985 7d3d dc10 12bd
00000010: 53b7 a13d f91c ecbe 262f 5bbe 8f73 d5bc
00000020: 9a56 d63d ae9a b03d 6e58 6e3c 4655 473d
00000030: 8cb3 9cbe 3471 37be 3566 b4bd 8ffc 69be
00000040: ab69 a73d d71d 59be 16d0 993d 83e2 13be
00000050: 21c9 bd3c 30ba f6bd 2211 c13b dcf4 30be
00000060: 37d1 293d 86df 54bc a2af 22be 5dae 003e
00000070: 66f4 30be e004 2e3e f1c6 053e 2da6 c0be
00000080: 87fd e5bd 1ce2 7b3d 12da ca3d 55e5 4bbe
00000090: 630b 42be 1a78 9dbe 74f8 a53d 9497 0a3e
000000a0: deb7 dcbb 7fce cfbd 4cb9 9c3d ff0c 5a3d
000000b0: 8ecc e6bd b785 8dbd 635e 713e b110 babc
000000c0: d16a aebe bd98 80bd 0370 5a3e 6111 f6bd
000000d0: ef7f 073e 0103 babd dabc 88be 4304 34bd
000000e0: 0c0c 013e f062 8ebd b8d5 bfbd 9600 f7bd
000000f0: 1278 693d 47bd ff3d 0fd3 36be cfc8 03be
00000100: e4c8 1bbd 928a dd3d 6f54 3bbd 3904 6c3e
00000110: 7fde 5fbc 8424 fa3c 2e4f 83bd 6ff4 963d
00000120: 38b0 05be 277d 033e 004d d83d ff50 0e3d
00000130: 1ebb 06be 6014 fc3d 80a6 eeba e4c5 f33d
00000140: 824d 303e 7347 4b3d 3e00 5abe 4809 cfbd
00000150: 43b3 74be 17cb 053e 26be 523e babe e6bc
00000160: 50e2 04be 8886 8a3d 2cd9 2d3d 372d f1bd
00000170: 17df ebbc 6a74 85bc c515 b5bb 3642 edbd
00000180: ba3b b53d bc14 3e3e 586e 84bd 7390 743d
00000190: 6116 34bd a508 31be 4e58 f53c 2d77 05bd
000001a0: 5dec 113e 8e04 9bbd 61d7 793c 3182 ab3e
000001b0: e8e5 c1bd 9845 cc3c 3437 73bd 158a 51bd
000001c0: 5912 933d 4bdf efbd b620 963d b87e 32bc
000001d0: 8c8f 803e b35a c0bb 685d 0c3e a59a 0f3d
000001e0: 2d30 40bd 8ecd 1c3c b2bf b83d 780b 74bc
000001f0: 4fde 8d3d cc2d 88bd 0bfd 85ba af7f 22be
00000200: 4d10 fcbc 66c9 b0bc d55e 7abe d535 4f3d
00000210: 304c d73d 498f febe 6ac8 1e3e f39b b93d
00000220: 246e adbd 30ef 9cbc cb10 823c b951 4ebd
00000230: a27b 07bd 2681 0f3e dcda 66bd fb6d d4bd
00000240: b07f e4bd 800a 87bd 204f 733d 8034 023e
00000250: 2d14 df3c f2c0 043d 5820 273d abe1 bc3d
00000260: 0ed3 993d be73 743d f4cc 9f3a 8c16 77bd
00000270: 3e28 08be b858 9fbc c039 a83e 4dd1 a6be
00000280: dc15 5fbd c771 ba3d fb0e ad3c d734 6dbe
00000290: c1f9 79be 2dc1 cd3d 1c86 b7ba 0ee2 8a3e
000002a0: 72b1 9bbe 534b 95bd 592c 01bc 435d deba
000002b0: d5a5 c9bd 7321 223e e971 8dbd 916d 96bd
000002c0: ff68 1bbe df7f 2a3e fb81 2d3e 40b0 593d
000002d0: 23fc 67bd e2df 523d dbaa f13d 1bbc 2fbe
000002e0: 16bf 53be 2656 3b3c be8d 863e fb9e 0c3e
000002f0: 3424 da3d 1ec3 e13c bf42 03be 3cac a7bd
00000300: 2e2b 833d 058d 86bd 088e e6bd 8b88 313d
00000310: 7404 b8bd de34 0dbd a9f5 66bc 0b06 093d
00000320: da49 24be 2126 8cbd 5623 f13a 3c87 1abe
00000330: 38f2 dd3c 42a4 1ebe 8028 64bd 23c1 00be
00000340: 0c98 193d 3efb 6abc c258 cabd 8a3a 88bd
00000350: a0f3 023e c032 763c 2802 9abe d48a 47bc
00000360: 555d 2cbd bf74 b9bb 9c20 e73d 191f 2abe
00000370: 8473 d0bd d9c5 60bd 9b64 b23c 09d6 8d3b
00000380: 304b d4bd f06f 1b3e c237 07be b8b8 8c3e
00000390: 45d3 f13d 703e ea3c c483 c23d 3a79 49be
000003a0: dbba f53c 9b23 503e 869f 0d3e c947 423c
000003b0: 07c0 a7bd 92b2 9ebd d81e 51bd 7a39 943d
000003c0: 5833 403d 09f2 33be 5f94 9ebc 25f2 063e
000003d0: 97e1 713d c342 a7bd a395 d6bd 5d9a f03c
000003e0: 27b5 94bd 6d19 443d 3e70 013e a8a2 aa3d
000003f0: edb8 e13d acfa 8c3e 1cef 213d 4533 c93b

stylus_predictor/phi/output/MatMul_4 f4 [1, 64]
-0.2483754 -0.096755154 -0.15066604 0.11852493 0.14445779 0.092846714 -0.04364384 0.04726581
-0.023853876 0.043519188 -0.054909986 -0.0066718985 0.20911618 0.0062272293 -0.11218543 0.05015924
0.1457502 -0.17071967 0.11322854 0.3597459 0.054153867 0.14158444 0.022715569 0.19667403
-0.019083625 -0.068293445 -0.09452185 -0.002692672 -0.1017291 0.06714113 -0.066876 -0.030854452
-0.082646444 0.051220223 -0.07046355 -0.13313182 -0.12655956 0.3505087 0.018157074 0.07338493
-0.08756819 -0.04703878 0.046216514 -0.05681657 -0.21518534 0.10956075 -0.049528666 -0.042348336
0.058107696 0.05792781 0.13818322 -0.080525056 0.07587278 -0.20511101 -0.039315756 0.052512906
0.021332858 -0.066061355 0.037947778 -0.1540979 0.0030647735 -0.02698828 0.16815826 0.081084624
00000000: 1f56 7ebe 9127 c6bd 3348 1abe 33bd f23d
00000010: beec 133e 6b26 be3d e2c3 32bd cb99 413d
00000020: 3469 c3bc 2d41 323d 4be9 60bd f19f dabb
00000030: 8d22 563e c90d cc3b 7ac1 e5bd c673 4d3d
00000040: 8a3f 153e 23d1 2ebe 5de4 e73d 9d30 b83e
00000050: 72d0 5d3d 83fb 103e 0016 ba3c eb64 493e
00000060: 4355 9cbc 6fdd 8bbd ac94 c1bd 8a77 30bb
00000070: 5957 d0bd 4a81 893d 49f6 88bd 7ac2 fcbc
00000080: 8a42 a9bd 4ccc 513d 324f 90bd b553 08be
00000090: d498 01be e075 b33e 25be 943c d74a 963d
000000a0: f456 b3bd bcab 40bd 874d 3d3d 7eb8 68bd
000000b0: 8c59 5cbe 6361 e03d 92de 4abd 7375 2dbd
000000c0: 5602 6e3d b645 6d3d e77f 0d3e 52ea a4bd
000000d0: 3063 9b3d 9f08 52be 8f09 21bd c617 573d
000000e0: 3fc2 ae3c 2d4b 87bd 216f 1b3d d7cb 1dbe
000000f0: 5eda 483b 8616 ddbc ae31 2c3e b20f a63d

stylus_predictor/pressure/embedding/MatMul f4 [64, 25]
0.029451596 0.08701111 0.11658225 0.20493603 -0.3015566 0.08605915 0.13911101 -0.03121529
0.05642087 0.11694867 0.3002458 -0.11466542 0.16494751 -0.10883026 -0.46764567 -0.102979474
-0.114307314 0.003835989 0.046636164 -0.28584906 -0.42707318 0.27279353 0.040468 0.40872648
-0.041780125 0.2807051 0.022142341 0.070014365 -0.3068965 -0.32270515 -0.075860366 -0.34504732
0.16722097 -0.09281113 -0.081445545 0.066300064 -0.12819783 0.16309866 0.02752112 0.38218594
-0.11763655 -0.065779395 -0.22934915 0.13909338 0.02667388 0.11041134 -0.23536332 -0.14775296
0.09223439 -0.330232 0.032259263 0.23333342 -0.03404116 -0.21175808 -0.051729396 0.16111012
0.12376767 0.057132397 -0.14306907 -0.07124154 -0.205597 -0.2816195 -0.17447545 -0.2876242
-0.81811416 0.050720725 0.07437099 0.17163014 -0.038906753 0.21785294 -0.13144268 0.024083095
0.021285977 -0.21315365 0.054203346 -0.28291538 0.25064862 -0.03263493 0.063533075 0.047297284
0.11062146 0.16357848 0.22565918 -0.1493242 -0.013598989 -0.052623987 0.00064436474 -0.25039157
-0.22006434 0.3268086 -0.08877558 -0.021888217 0.03480907 0.11669949 -0.0076711224 0.36397457
0.0036680645 -0.19475102 0.15340205 -0.11324651 0.010444585 0.15899824 0.27725318 0.15595442
0.21249555 -0.016678931 -0.08255974 -0.02684577 -0.16577518 -0.12541611 0.063269034 0.19774474
0.17387842 0.08638613 0.34189615 0.16216168 -0.025646174 -0.07918492 -0.051937267 -0.040815048
-0.29485476 -0.35803726 0.061268073 0.17492166 -0.044510014 0.0424023 0.22600253 -0.27227268
-0.10631382 -0.06073593 -0.05699802 -0.005742129 -0.09478628 -0.0015667703 -0.056954402 0.22414903
0.13092972 0.079091854 -0.14119811 -0.4390549 -0.14270239 0.13776916 0.20779537 -0.2055189
0.18151195 -0.03585803 -0.20209433 0.09587859 0.4074887 -0.2959874 -0.06193091 -0.18394724
0.044739854 0.092982434 0.22749712 0.10249044 -0.020684343 -0.09127267 -0.21737264 0.039037634
-0.121814884 0.19199419 0.116287686 0.4638873 0.60349053 0.18463475 0.09135934 0.21228863
0.018774437 -0.15937783 -0.11879498 -0.17506349 0.07872085 0.10356006 0.33421594 -0.07272679
-0.35734478 0.25957596 -0.2592149 -0.05990406 0.15968312 0.2061571 0.030638743 -0.09776476
-0.12471112 -0.23119439 -0.12128351 -0.15552534 -0.26578775 -0.48516506 -0.014268549 0.027843837
-0.11187595 0.11697723 -0.0027112714 -0.291449 -0.3230398 -0.032514684 -0.15580003 -0.13294004
-0.11525366 0.16007029 0.10577981 -0.14969781 0.2950049 -0.2524683 -0.02477867 0.038695883
-0.2407151 -0.16130434 -0.11597652 -0.253375 0.13181527 0.051114134 -0.6452712 0.2064353
-0.026145032 0.041917447 0.35251462 -0.1297561 -0.15503119 0.05257638 0.10174426 -0.13920571
-0.14100362 0.15933467 -0.2852003 -0.1909938 0.040000625 -0.14300387 -0.122370034 -0.0013109731
-0.055870898 -0.057856396 0.10059262 0.0628209 -0.07840583 -0.29468408 0.3234207 0.35531223
0.14078148 -0.056652725 0.09330266 -0.06011907 -0.1085329 0.07999135 0.013211128 -0.2547384
0.33337423 -0.19704624 0.20812006 0.10254436 -0.104324326 0.24664727 0.24016306 -0.28722656
00000000: 7944 f13c e132 b23d adc2 ee3d c0da 513e
00000010: a065 9abe c83f b03d 1e73 0e3e 35b7 ffbc
00000020: 9219 673d c982 ef3d d1b9 993e b4d5 eabd
00000030: 00e8 283e 66e2 debd 416f efbe e7e6 d2bd
00000040: f419 eabd 3765 7b3b 9005 3f3d cf5a 92be
00000050: 56a9 dabe 98ab 8b3e c6c1 253d 9944 d13e
00000060: a321 2bbd 94b8 8f3e db63 b53c b163 8f3d
00000070: 8a21 9dbe 9c39 a5be ae5c 9bbd 0baa b0be
00000080: f93b 2b3e c313 bebd eccc a6bd 54c8 873d
00000090: 4b46 03be 5603 273e f973 e13c e0ad c33e
000000a0: 6eeb f0bd 59b7 86bd 81da 6abe 7f6e 0e3e
000000b0: 2e83 da3c 571f e23d 1503 71be 8d4c 17be
000000c0: 62e5 bc3d 2b14 a9be 4a22 043d f5ee 6e3e
000000d0: be6e 0bbd 1cd7 58be 34e2 53bd 0dfa 243e
000000e0: e779 fd3d a903 6a3d b380 12be 16e7 91bd
000000f0: 0588 52be 6e30 90be b1a9 32be 7b43 93be
00000100: ee6f 51bf 89c0 4f3d d14f 983d d0bf 2f3e
00000110: b05c 1fbd d714 5f3e e998 06be e949 c53c
00000120: ee5f ae3c f344 5abe 5404 5e3d 49da 90be
00000130: 0455 803e 34ac 05bd a11d 823d ccba 413d
00000140: 818d e23d 1e81 273e 3313 673e 71e8 18be
00000150: 4bce 5ebc 408c 57bd 96ea 283a 5333 80be
00000160: 8c58 61be 7553 a73e f9cf b5bd eb4e b3bc
00000170: f593 0e3d 2400 ef3d 0a5e fbbb e05a ba3e
00000180: e963 703b d06c 47be 6d15 1d3e c9ed e7bd
00000190: c41f 2b3c 6fd0 223e 21f4 8d3e 84b2 1f3e
000001a0: 6f98 593e 41a2 88bc 1515 a9bd a9eb dbbc
000001b0: f8c0 29be 156d 00be 3293 813d 997d 4a3e
000001c0: 2f0d 323e 36eb b03d 030d af3e b60d 263e
000001d0: ed17 d2bc b42b a2bd 2cbc 54bd ae2d 27bd
000001e0: 34f7 96be a950 b7be 3bf4 7a3d aa1e 333e
000001f0: 2250 36bd 09ae 2d3d 356d 673e 5367 8bbe
00000200: 0fbb d9bd 3dc6 78bd c176 69bd 7828 bcbb
00000210: 4f1f c2bd 165c cdba 0549 69bd 5387 653e
00000220: 7112 063e e9fa a13d 3d96 10be cecb e0be
00000230: 9320 12be 5c13 0d3e 4fc8 543e 8c73 52be
00000240: 45de 393e dfdf 12bd d1f1 4ebe ff5b c43d
00000250: 5ca2 d03e a98b 97be 44ab 7dbd aa5c 3cbe
00000260: 2341 373d 936d be3d 01f5 683e 82e6 d13d
00000270: 3672 a9bc 2aed babd ef96 5ebe ede5 1f3d
00000280: 157a f9bd 209a 443e 3d28 ee3d a382 ed3e
00000290: 5b7e 1a3f e410 3d3e 9b1a bb3d 3162 593e
000002a0: d9cc 993c f133 23be c84a f3bd d843 33be
000002b0: 6638 a13d 4c17 d43d 5a1e ab3e c9f1 94bd
000002c0: e5f5 b6be 24e7 843e d1b7 84be f65d 75bd
000002d0: f983 233e d91a 533e 1afe fa3c e438 c8bd
000002e0: 8b68 ffbd 39be 6cbe 7d63 f8bd 0942 1fbe
000002f0: 5515 88be 8e67 f8be a2c6 69bc c218 e43c
00000300: 381f e5bd c291 ef3d 96af 31bb ce38 95be
00000310: 7965 a5be 1e2e 05bd 0b8a 1fbe 6f21 08be
00000320: 1c0a ecbd 77e9 233e 16a3 d83d 624a 19be
00000330: e20a 973e 8643 81be a3fc cabc 937f 1e3d
00000340: 057e 76be f72c 25be 1985 edbd 5eba 81be
00000350: 95fa 063e 0e5d 513d 7e30 25bf c663 533e
00000360: 1b2e d6bc a1b1 2b3d cc7c b43e c8de 04be
00000370: 7fc0 1ebe 555a 573d 4b5f d03d f18b 0ebe
00000380: 4163 10be a128 233e c605 92be e193 43be
00000390: b2d7 233d 9b6f 12be 249d fabd f5d4 abba
000003a0: e2d8 64bd d4fa 6cbd 8103 ce3d 3ea8 803d
000003b0: 3c93 a0bd d5e0 96be 6697 a53e 7ceb b53e
000003c0: 0529 103e b00c 68bd 7715 bf3d 6a3f 76bd
000003d0: 7f46 debd 81d2 a33d 7d73 583c 126d 82be
000003e0: 07b0 aa3e 7dc6 49be 6d1d 553e c702 d23d
000003f0: fea7 d5bd 1a91 7c3e 4eed 753e 5c0f 93be

stylus_predictor/pressure/linear/MatMul_8 f4 [64, 64]
0.17021483 0.11649123 -0.06523582 -0.16640091 -0.018010758 0.08926954 0.01690565 -0.0021540218
-0.14152882 -0.14127117 0.0022720578 0.054358445 -0.07633898 0.05009508 0.011201111 -0.10938261
-0.058717288 0.03829148 -0.14187858 0.15066524 0.1489396 0.055932317 -0.016805053 0.046960957
-0.09533547 0.038403396 -0.0811116 0.12605159 0.0970088 0.19481042 0.09724656 -0.10337033
0.035760727 0.011017314 0.111242294 -0.010851766 -0.12882827 0.025554629 -0.024776781 0.05099398
0.19906926 -0.04209563 0.043418303 0.0608313 0.21213418 0.040933408 0.19644448 0.06609687
0.124187246 -0.11816136 0.034759875 -0.143937 0.1157252 0.07180733 -0.12757593 0.009140477
-0.08550205 -0.110989705 -0.12356513 0.14613624 -0.085563116 0.14792714 0.0807583 -0.003725759
0.18252732 -0.09154903 -0.066374674 -0.06786216 -0.19272168 0.058289792 -0.09958375 0.18426245
0.21604335 -0.08212516 0.14448245 -0.052312445 0.16752976 -0.18072547 0.149929 0.022376118
-0.07029739 0.22689249 0.089866 -0.029052498 0.16173816 0.007105845 -0.21925141 -0.03484533
-0.027525648 0.105928846 0.015689775 0.018279335 0.11005993 0.18423195 0.03710754 -0.15899363
-0.02569528 -0.08989301 0.05699345 -0.1461566 -0.123463735 -0.028435783 -0.00037187638 0.07344069
0.16548857 0.1977895 0.043527815 -0.02467707 0.067430615 0.022233486 -0.060476203 0.049931508
-0.14258924 0.007637229 -0.056442674 0.06150451 -0.10491257 0.024535395 -0.0887729 -0.14921422
0.025768712 -0.099070705 0.15109262 0.09367656 0.027435873 -0.007981554 0.00592817 0.19951384
-0.19500962 0.08044289 -0.09569912 -0.060044885 0.028963855 0.0066482923 0.20270994 -0.09887972
0.16269028 -0.109904364 0.07625581 0.01071384 -0.061133567 -0.15428814 -0.1098095 0.02767262
0.1323185 0.050552465 -0.23888808 0.06447385 0.079799674 0.08962038 0.22374018 0.097547755
-0.09100009 0.048446868 0.05246103 -0.015588355 -0.013343621 0.17232166 0.09801914 0.051504336
-0.14916189 0.07498388 -0.019665293 -0.028116573 0.02788966 0.19802095 0.006442151 -0.21036641
0.034348723 -0.008691371 0.1549913 0.0723943 0.21299091 -0.1415617 0.043655835 -0.020259337
0.02429374 0.0071546915 -0.071225815 0.043244738 -0.1839583 0.14283253 0.025717469 0.00064227503
0.18203838 0.06822195 -0.10657343 0.14302403 0.087891996 0.10464203 -0.11105148 -0.08268814
0.11310231 0.16973267 0.11689796 -0.078194015 -0.00016756341 -0.12951472 -0.08756664 -0.013648705
0.045034103 0.038469207 -0.053531542 0.007991354 -0.058327142 -0.08670412 0.040744413 0.21234111
0.01145134 -0.23092516 -0.15970705 -0.037709016 0.06854068 0.016892763 -0.071108 -0.10681841
0.14653043 -0.10562106 -0.015263269 -0.17165674 0.04975922 -0.03921514 0.10636706 0.0012726297
-0.08795219 -0.08682994 0.048187286 -0.16574186 0.13183586 0.207041 0.023034664 -0.18971604
-0.00027395363 -0.15065736 0.19299981 -0.20755479 -0.073856995 0.120005846 0.20547885 -0.030617887
-0.049495004 0.049036313 -0.009921453 -0.00014408202 0.14512321 0.021970712 -0.036719684 -0.014233807
0.18588191 -0.05563976 0.063166186 -0.1546573 0.025478898 0.029902805 0.03696868 -0.10833698
00000000: cc4c 2e3e f492 ee3d 5c9a 85bd 0065 2abe
00000010: 4c8b 93bc f3d2 b63d b87d 8a3c 7d2a 0dbb
00000020: eeec 10be 64a9 10be cee6 143b f6a6 5e3d
00000030: 9c57 9cbd 8030 4d3d dd84 373c fd03 e0bd
00000040: 8a81 70bd 87d7 1c3d 9e48 11be fd47 1a3e
00000050: 9f83 183e 4919 653d c0aa 89bc 225a 403d
00000060: 3e3f c3bd e14c 1d3d d71d a6bd ab13 013e
00000070: 8dac c63d 627c 473e 3429 c73d d3b3 d3bd
00000080: d779 123d f781 343c 00d3 e33d 9bcb 31bc
00000090: 8feb 03be f157 d13c adf8 cabc 10df 503d
000000a0: d0d8 4b3e 786c 2cbd 64d7 313d 3e2a 793d
000000b0: b439 593e caa9 273d be28 493e cc5d 873d
000000c0: e255 fe3d 95fe f1bd 5f60 0e3d 3964 13be
000000d0: 5501 ed3d b90f 933d 44a3 02be f0c1 153c
000000e0: b31b afbd 924e e3bd b70f fdbd bda4 153e
000000f0: b73b afbd 367a 173e 9c64 a53d dd2b 74bb
00000100: 71e8 3a3e 0f7e bbbd 72ef 87bd 51fb 8abd
00000110: d558 45be 47c1 6e3d 91f2 cbbd 4caf 3c3e
00000120: 783a 5d3e 3c31 a8bd 35f3 133e 9345 56bd
00000130: ec8c 2b3e 1910 39be fd86 193e 1f4e b73c
00000140: 14f8 8fbd 8156 683e aa0b b83d 81ff edbc
00000150: b09e 253e 26d8 e83b 7183 60be fab9 0ebd
00000160: 787d e1bc 39f1 d83d d887 803c 8bbe 953c
00000170: 1a67 e13d 4da7 3c3e 13fe 173d 3acf 22be
00000180: e87e d2bc d419 b8bd f771 693d 13aa 15be
00000190: 8eda fcbd 29f2 e8bc 67f8 c2b9 1368 963d
000001a0: d675 293e 5589 4a3e 394a 323d 9127 cabc
000001b0: 1019 8a3d 0023 b63c e5b5 77bd fb84 4c3d
000001c0: ea02 12be b841 fa3b 6f30 67bd 27ec 7b3d
000001d0: 67dc d6bd 74fe c83c 91ce b5bd 9dcb 18be
000001e0: e818 d33c 95e5 cabd 06b8 1a3e 7fd9 bf3d
000001f0: 32c1 e03c 10c5 02bc 1841 c23b 5b4d 4c3e
00000200: 9ab0 47be 3ebf a43d e6fd c3bd a0f1 75bd
00000210: 9b45 ed3c ebd9 d93b 3293 4f3e 7381 cabd
00000220: 4898 263e 8a15 e1bd 022c 9c3d 1a89 2f3c
00000230: 3167 7abd b6fd 1dbe cee3 e0bd b1b1 e23c
00000240: 807e 073e 1a10 4f3d 149f 74be de0a 843d
00000250: 036e a33d e48a b73d 251c 653e 1ec7 c73d
00000260: 415e babd 3970 463d 61e1 563d 4d66 7fbc
00000270: 349f 5abc 1775 303e 42be c83d 36f6 523d
00000280: e5bd 18be 2691 993d 1c19 a1bc ba54 e6bc
00000290: db78 e43c 01c6 4a3e ae18 d33b 4b6a 57be
000002a0: 3fb1 0c3d 4166 0ebc 0ab6 1e3e 7643 943d
000002b0: 4a1a 5a3e 8df5 10be 76d0 323d e9f6 a5bc
000002c0: aa03 c73c e771 ea3b d7de 91bd 6521 313d
000002d0: 915f 3cbe b142 123e 71ad d23c 595e 283a
000002e0: 4568 3a3e f3b7 8b3d 2c43 dabd e474 123e
000002f0: b800 b43d 904e d63d f56e e3bd 6658 a9bd
00000300: 2fa2 e73d 67ce 2d3e 3368 ef3d 2f24 a0bd
00000310: f6b3 2fb9 829f 04be 2356 b3bd d19e 5fbc
00000320: ae75 383d e391 1d3d e443 5bbd 2bee 023c
00000330: 71e8 6ebd ee91 b1bd 9de3 263d f36f 593e
00000340: 679e 3b3c a577 6cbe 3f8a 23be c574 1abd
00000350: 0e5f 8c3d b162 8a3c 12a1 91bd 9cc3 dabd
00000360: 130c 163e db4f d8bd ca12 7abc c9c6 2fbe
00000370: 53d0 4b3d 0ea0 20bd f9d6 d93d 5ece a63a
00000380: 4720 b4bd e5d3 b1bd 0860 453d 3cb8 29be
00000390: fbff 063e 8e02 543e 31b3 bc3c ec44 42be
000003a0: 6fa1 8fb9 ec45 1abe bea1 453e 3e89 54be
000003b0: 5642 97bd a0c5 f53d 0c69 523e 5dd2 fabc
000003c0: 46bb 4abd 4dda 483d 978d 22bc b914 17b9
000003d0: 2e9b 143e ecfb b33c 6167 16bd ea34 69bc
000003e0: d457 3e3e 84e6 63bd 465d 813d 7c5e 1ebe
000003f0: 1fb9 d03c baf6 f43c 786c 173d c7df ddbd
