data/etc/input/motion_predictor_model.tflite (tflite, 34080 bytes, 36 tensors)

stylus_predictor/pressure/linear/Add/ReadVariableOp f4 [16]
0.0034618569 -0.003253794 0.004132459 -0.024439942 0.0009571369 -0.0042663785 0.014312012 0.0106812045
-0.00335138 0.039013892 -0.0023185527 0.0036429807 0.03622655 0.017349314 0.0037943546 0.06146084
00000000: 52e0 623b 9b3d 55bb 9469 873b 4636 c8bc
00000010: 5fe8 7a3a facc 8bbb ee7c 6a3c 3800 2f3c
00000020: d3a2 5bbb 08cd 1f3d dcf2 17bb 13bf 6e3b
00000030: 4a62 143d 2620 8e3c b5aa 783b 5dbe 7b3d

stylus_predictor/pressure/linear/Add_5/ReadVariableOp f4 [5]
0.23193231 0.27539384 0.28380468 0.28565064 0.14208244
00000000: aa7f 6d3e 6c00 8d3e d94e 913e cd40 923e
00000010: 0f7e 113e

stylus_predictor/pressure/linear/Add_4/ReadVariableOp f4 [8]
-0.012186342 0.30682385 0.07848825 0.1976843 -5.2287796e-06 -0.005041767 0.05359353 -0.007799374
00000000: 39a9 47bc 0418 9d3e 73be a03d c16d 4a3e
00000010: e072 afb6 6835 a5bb e484 5b3d e491 ffbb

stylus_predictor/pressure/linear/Add_3/ReadVariableOp f4 [8]
-0.024263687 5.8365113e-06 -0.07678263 0.18266685 -0.003148531 -0.034785986 0.19408017 0.09606798
00000000: a4c4 c6bc 40d7 c336 3640 9dbd 050d 3b3e
00000010: 9657 4ebb c07b 0ebd f4bc 463e 4abf c43d

stylus_predictor/pressure/linear/Add_2/ReadVariableOp f4 [16]
-0.010506583 -0.0787137 -0.043144073 0.0012534708 0.002593232 -0.017295588 -0.002790284 -0.006550258
0.12416036 -0.00025091248 -0.0031400835 -0.006079723 -0.00031284022 0.089512736 0.12109483 -0.0054607918
00000000: ce23 2cbc a634 a1bd d7b7 30bd 804b a43a
00000010: 37f3 293b 7aaf 8dbc 33dd 36bb 8ca3 d6bb
00000020: c947 fe3d e78c 83b9 dcc9 4dbb 6a38 c7bb
00000030: b404 a4b9 7452 b73d 9100 f83d 71f0 b2bb

stylus_predictor/pressure/linear/Add_1/ReadVariableOp f4 [16]
-0.009440228 0.030512424 0.048284296 0.099222824 -0.024403883 0.0028679308 -0.005169515 0.014389502
-0.0007166808 0.0025513724 0.016950643 0.04771741 0.03802801 -0.053161923 -0.010494522 0.038434647
00000000: 30ab 1abc 31f5 f93c c1c5 453d 5635 cb3d
00000010: a7ea c7bc e5f3 3b3b 0965 a9bb f2c1 6b3c
00000020: a2df 3bba ed34 273b 13dc 8a3c 5573 433d
00000030: 42c3 1b3d 51c0 59bd 37f1 2bbc a66d 1d3d

stylus_predictor/phi/linear/Add/ReadVariableOp f4 [16]
0.006135238 -0.028566595 0.047074843 -0.008245153 0.0028939082 0.027048644 -0.033093475 0.027507085
0.08847532 0.0030805496 0.029921487 0.00825301 -0.006162175 -6.121065e-06 0.000653405 0.033850443
00000000: 1b0a c93b 7e04 eabc 8dd1 403d ae16 07bc
00000010: b9a7 3d3b 1e95 dd3c 068d 07bd 8a56 e13c
00000020: 8c32 b53d 0ce3 493b e81d f53c a237 073c
00000030: 12ec c9bb 8c63 cdb6 4449 2b3a c3a6 0a3d

stylus_predictor/phi/linear/Add_5/ReadVariableOp f4 [5]
-0.07996335 -0.066366136 -0.01758703 -0.103782706 0.016543515
00000000: d3c3 a3bd f8ea 87bd ad12 90bc 078c d4bd
00000010: 4486 873c

stylus_predictor/phi/linear/Add_4/ReadVariableOp f4 [8]
-0.010179808 -0.13986373 -0.014018482 0.21534583 -0.16291873 0.011926491 -0.23202406 -0.06065205
00000000: 36c9 26bc 7038 0fbe c6ad 65bc 9e83 5c3e
00000010: 2bd4 26be 5467 433c b797 6dbe 496e 78bd

stylus_predictor/phi/linear/Add_3/ReadVariableOp f4 [8]
-0.026408644 0.39405775 0.08789754 -0.03441544 -0.08537134 0.09971449 -0.01613481 -0.14936684
00000000: f156 d8bc f0c1 c93e a003 b43d 34f7 0cbd
00000010: 2bd7 aebd 1c37 cc3d 262d 84bc 9ff3 18be

stylus_predictor/phi/linear/Add_2/ReadVariableOp f4 [16]
-0.00042952877 -0.01052286 0.068341486 -0.031597927 -0.067759365 -0.011090268 0.15624584 0.007849333
-0.026106682 -0.013065009 -0.002035391 -0.06406099 0.060627528 -0.031285193 -0.004028927 0.12417793
00000000: 6032 e1b9 1368 2cbc 9ff6 8b3d d46c 01bd
00000010: 6cc5 8abd f5b3 35bc e9fe 1f3e 7d9a 003c
00000020: aedd d5bc 9f0e 56bc 3264 05bb 6932 83bd
00000030: 9254 783d e724 00bd 1705 84bb 0051 fe3d

stylus_predictor/phi/linear/Add_1/ReadVariableOp f4 [16]
0.057425458 0.0029072363 0.05942426 0.0072245183 0.06051506 -0.010363144 0.006313132 0.0031230506
-0.011571091 -0.019947605 -0.0010628592 0.04240925 -0.010515074 -0.027697051 -0.051584862 0.0128923375
00000000: f536 6b3d 5587 3e3b da66 733d a7bb ec3b
00000010: a4de 773d 2dca 29bc 64de ce3b 18ac 4c3b
00000020: ac94 3dbc 2969 a3bc a34f 8bba 52b5 2d3d
00000030: 6b47 2cbc ede4 e2bc a64a 53bd 623a 533c

stylus_predictor/r/linear/Add/ReadVariableOp f4 [16]
0.029280487 0.017935902 -0.041516136 -0.049720973 0.0694682 0.0028621578 -0.07054046 0.021813182
-0.006337046 -0.0015513442 0.10068583 0.0029107432 -0.0007486145 0.0005518845 0.043475665 -0.06696552
00000000: a2dd ef3c 50ee 923c d30c 2abd 38a8 4bbd
00000010: 5845 8e3d 0a93 3b3b 8477 90bd 8fb1 b23c
00000020: ffa6 cfbb 7956 cbba 5f34 ce3d 2bc2 3e3b
00000030: ab3e 44ba 58ac 103a 8a13 323d 3825 89bd

stylus_predictor/r/linear/Add_5/ReadVariableOp f4 [5]
0.018661745 -0.015184183 0.012140943 0.006938872 0.056063883
00000000: 84e0 983c 14c7 78bc ceea 463c 7a5f e33b
00000010: 3ea3 653d

stylus_predictor/r/linear/Add_4/ReadVariableOp f4 [8]
-0.07963642 -0.00018672297 -0.051345553 -0.018257076 -0.1003303 0.009393692 0.015584304 -0.002565589
00000000: 6b18 a3bd 11cb 43b9 b74f 52bd dd8f 95bc
00000010: f979 cdbd 00e8 193c 4f55 7f3c 7123 28bb

stylus_predictor/r/linear/Add_3/ReadVariableOp f4 [8]
-0.0068438146 0.08583529 -0.05790805 0.05438907 0.00051882706 -0.00014338143 -0.00646145 -0.032405626
00000000: 1442 e0bb 6aca af3d fe30 6dbd 13c7 5e3d
00000010: e501 083a a958 16b9 92ba d3bb c3bb 04bd

stylus_predictor/r/linear/Add_2/ReadVariableOp f4 [16]
0.010120085 -0.0019108832 0.12585452 -0.0011566682 -6.969111e-05 -0.0030851269 -0.00073647895 0.027213868
-0.07549226 -0.051240165 -0.0033984699 -0.18531767 0.0023631183 -0.060051475 0.03555481 0.025886213
00000000: b7ce 253c 9a76 faba 02e0 003e 589b 97ba
00000010: 2127 92b8 d72f 4abb 4410 41ba 9eef de3c
00000020: b09b 9abd 35e1 51bd ddb8 5ebb eac3 3dbe
00000030: 8cde 1a3b 89f8 75bd eca1 113d 530f d43c

stylus_predictor/r/linear/Add_1/ReadVariableOp f4 [16]
-0.00890968 0.012344705 0.022554614 -0.009605629 0.011204223 0.08233353 -0.051625885 0.19506215
0.010449265 -0.046626203 -0.005781221 -0.005398745 -0.043187033 0.016980436 0.019388298 -0.0064976346
00000000: e8f9 11bc 7241 4a3c 74c4 b83c ee60 1dbc
00000010: eb91 373c 7b9e a83d aa75 53bd 5fbe 473e
00000020: 6533 2b3c 1efb 3ebd 6670 bdbb f5e7 b0bb
00000030: e3e4 30bd 8e1a 8b3c 35d4 9e3c 1cea d4bb

stylus_predictor/r/linear/MatMul f4 [16, 80]
0.03512648 -0.0686522 -0.09347562 -0.040152527 0.059531074 -0.07244512 0.0013122724 0.0395076
-0.09656502 0.025142407 -0.01813759 -0.107146315 0.050118886 -0.04111376 0.21179415 0.41453856
-0.0017882525 -0.04189818 0.0056299 -0.15988329 -0.015680814 -0.10684174 0.06569158 -0.13921636
-0.15366489 0.1502167 -0.07942377 0.028023105 0.102674 -0.089211196 0.16346522 0.07222993
0.12528068 0.06283973 0.028965797 0.123834446 -0.09314472 0.056959473 0.08596183 0.1650934
0.0026836707 0.0509619 -0.03714809 0.18937477 0.055636227 0.026704313 0.093044676 0.1889022
-0.006979856 -0.010837413 0.047390684 -0.050162822 -0.09371134 -0.065854356 0.14950082 -0.056787625
-0.14075907 0.087333374 0.09933627 -0.030234966 -0.03237465 -0.07405624 -0.03744316 0.113673136
-0.11728747 -0.16967939 0.17962408 0.17120017 0.15564659 -0.00502732 0.16810662 0.07695163
0.050542973 0.031386413 0.08971847 0.08455868 0.0028023648 0.02202389 0.06762124 -0.049563494
0.15211923 -0.0052243173 0.08661699 0.030310819 -0.016184203 0.1983591 0.029602613 0.09298511
-0.02484962 -0.023700304 -0.016163716 0.00086821883 0.100314 -0.08884101 -0.12969601 -0.07586554
0.030388372 0.09577074 0.046244297 -0.043055736 -0.06422892 -0.0909591 -0.029185219 -0.048580494
-0.16533329 0.0067103454 -0.0668283 0.032115124 -0.00894815 0.022322068 -0.012913789 0.06915703
0.06289016 -0.10529777 0.10190821 0.11271635 -0.18877569 0.09494063 -0.06187943 -0.00657558
0.1630548 0.06328166 -0.14368778 -0.15018396 -0.07106152 0.17069937 -0.1990553 -0.0037859918
0.09379228 -0.1694684 -0.13213174 0.11649465 0.058733363 0.21848382 0.026484432 -0.01987675
0.13595687 -0.06871546 -0.13940717 0.031368416 -0.021540219 -0.18409505 0.047889933 0.041731566
-0.02464746 0.02941599 0.012398442 0.033053517 0.14003316 0.048683144 -0.06275053 0.07422657
0.059612174 0.09956324 -0.15901694 -0.15294582 -0.0381939 -0.08750143 -0.041310355 0.15846609
-0.015257844 -0.056471027 0.029301431 0.12725805 -0.073422685 0.13939676 -0.014880005 0.08327101
-0.03294813 0.018642243 0.105564624 0.05352489 0.16706386 0.12054768 -0.069563225 -0.22486947
-0.0039068162 0.10521135 0.13816659 0.18066767 -0.07160687 0.0065416023 -0.024778 -0.17645225
-0.1905937 -0.1600428 -0.04284778 -0.08056798 0.047004562 -0.026955858 0.09230081 0.124946184
-0.04694841 -0.06985522 -0.026661284 -0.25537083 -0.116586424 -0.06244236 -0.05927832 -0.15845677
0.051882908 0.1640514 -0.10404294 0.034581747 0.011647415 -0.12721978 -0.03797704 -0.05709218
0.14854802 -0.008315344 -0.096283294 -0.07192738 0.11759046 0.007480384 -0.06491208 -0.005546385
-0.11521457 0.10996758 -0.044037122 0.065772235 -0.0076803453 -0.10435936 0.02634668 -0.02528488
0.122460365 -0.13144511 -0.042496227 -0.04254033 0.0519532 -0.08818583 -0.09768487 -0.07091059
0.18422094 -0.0022549278 0.088628955 -0.061335165 -0.20762993 -0.1229135 -0.061360575 -0.058202323
0.13720314 -0.060312048 0.04307803 0.09623867 0.11612749 -0.14884639 -0.17552683 0.10183722
-0.051302984 0.08289749 -0.04128572 0.005327181 -0.20283633 0.10560988 0.19132991 0.21832484
00000000: c9e0 0f3d 8699 8cbd 2570 bfbd fa76 24bd
00000010: dbd6 733d 1b5e 94bd 8e00 ac3a b9d2 213d
00000020: e2c3 c5bd 73f7 cd3c 4895 94bc 876f dbbd
00000030: 7649 4d3d e766 28bd 91e0 583e 663e d43e
00000040: cc63 eaba 6d9d 2bbd 067b b83b 72b8 23be
00000050: 0d75 80bc d8cf dabd 4f89 863d bc8e 0ebe
00000060: 545a 1dbe 68d2 193e eea8 a2bd b690 e53c
00000070: bf46 d23d 5cb4 b6bd 6d63 273e 49ed 933d
00000080: 9449 003e 1eb2 803d ae49 ed3c ea9c fd3d
00000090: a9c2 bebd 564e 693d c20c b03d 3f0e 293e
000000a0: 86e0 2f3b 6dbd 503d 9828 18bd 76eb 413e
000000b0: d0e2 633d 01c3 da3c 358e be3d 946f 413e
000000c0: 47b7 e4bb 688f 31bc bc1c 423d 8877 4dbd
000000d0: bbeb bfbd a6de 86bd be16 193e 249a 68bd
000000e0: 2523 10be d7db b23d d070 cb3d 52af f7bc
000000f0: 489b 04bd ccaa 97bd 005e 19bd 76cd e83d
00000100: 6a34 f0bd 6fc0 2dbe 60ef 373e 194f 2f3e
00000110: d261 1f3e 37bc a4bb 2424 2c3e d198 9d3d
00000120: 2606 4f3d 0a8f 003d 51be b73d 1a2d ad3d
00000130: e1a7 373b 726b b43c 017d 8a3d 1703 4bbd
00000140: 25c5 1b3e c030 abbb 4064 b13d 654e f83c
00000150: bc94 84bc a61e 4b3e 2e81 f23c fa6e be3d
00000160: 6e91 cbbc 2427 c2bc c569 84bc 2e99 633a
00000170: 6d71 cd3d 47f2 b5bd 08cf 04be 645f 9bbd
00000180: 09f1 f83c 7323 c43d a96a 3d3d 365b 30bd
00000190: 748a 83bd c448 babd d715 efbc 57fc 46bd
000001a0: 214d 29be 75e2 db3b 47dd 88bd 268b 033d
000001b0: 439b 12bc c5dc b63c 5b94 53bc 33a2 8d3d
000001c0: 8ecc 803d 5ba6 d7bd 40b5 d03d d4d7 e63d
000001d0: 6a4e 41be 3c70 c23d 4975 7dbd f777 d7bb
000001e0: d6f7 263e d199 813d e422 13be d3c9 19be
000001f0: b488 91bd d1cb 2e3e 27d5 4bbe 671e 78bb
00000200: 2b16 c03d 2089 2dbe 8b4d 07be bf94 ee3d
00000210: 6592 703d 39ba 5f3e e1f5 d83c 91d4 a2bc
00000220: 4738 0b3e b1ba 8cbd c1c0 0ebe 2b7c 003d
00000230: 1d75 b0bc 6a83 3cbe 3c28 443d b8ee 2a3d
00000240: 78e9 c9bc cdf9 f03c d622 4b3c 2063 073d
00000250: da64 0f3e fa67 473d 5a83 80bd 1a04 983d
00000260: e52b 743d d0e7 cb3d 56d5 22be d49d 1cbe
00000270: 3571 1cbd f333 b3bd 0c35 29bd ef44 223e
00000280: 09fc 79bc 2a4e 67bd 8e09 f03c ef4f 023e
00000290: a25e 96bd 06be 0e3e 44cb 73bc fe89 aa3d
000002a0: 9ef4 06bd 9eb7 983c 4432 d83d ea3c 5b3d
000002b0: ca12 2b3e b4e1 f63d 2a77 8ebd 2f44 66be
000002c0: c004 80bb 0c79 d73d 8b7b 0d3e f200 393e
000002d0: 9fa6 92bd f05a d63b 3bfb cabc e6af 34be
000002e0: ff2a 43be 42e2 23be 2781 2fbd d300 a5bd
000002f0: db87 403d 88d2 dcbc 3508 bd3d c9e3 ff3d
00000300: fa4c 40bd 4110 8fbd c468 dabc f7bf 82be
00000310: ddc4 eebd 8fc3 7fbd d3cd 72bd 7e42 22be
00000320: 2c83 543d 17fd 273e 7714 d5bd 97a5 0d3d
00000330: cdd4 3e3c e745 02be d08d 1bbd 7dd9 69bd
00000340: f91c 183e 153d 08bc 2d30 c5bd aa4e 93bd
00000350: 44d3 f03d 021e f53b a0f0 84bd 73be b5bb
00000360: 9ef5 ebbd af36 e13d 4560 34bd 98b3 863d
00000370: 68ab fbbb 5cba d5bd fed4 d73c 3d22 cfbc
00000380: 80cc fa3d 8c99 06be 8610 2ebd c53e 2ebd
00000390: e1cc 543d c69a b4bd 010f c8bd 9239 91bd
000003a0: 6aa4 3c3e 69c7 13bb 1983 b53d 953a 7bbd
000003b0: f19c 54be 13ba fbbd 3a55 7bbd 8f65 6ebd
000003c0: fb7e 0c3e c409 77bd 9772 303d c818 c53d
000003d0: 40d4 ed3d 306b 18be 4ebd 33be 0890 d03d
000003e0: 1423 52bd 29c6 a93d 371b 29bd a28f ae3b
000003f0: 54b4 4fbe fe49 d83d fdeb 433e 8c90 5f3e

stylus_predictor/r/linear/MatMul_1 f4 [16, 16]
-0.0029869392 -0.37487492 0.25126383 0.28155002 0.18933527 -0.14973992 -0.30245587 -0.002419118
-0.15164572 -0.4804047 -0.13649145 0.4605755 -0.0049557276 -0.05986946 -0.2671986 -0.14235567
0.20164719 -0.41001245 -0.16975835 -0.13821445 0.033343107 0.15858184 -0.21908292 0.2420994
-0.20577791 0.4274247 0.025325801 0.23500934 0.38755834 -0.10781041 0.29046062 -0.08705499
-0.23847294 -0.1776107 0.23762167 0.15394267 0.16914502 0.10249968 0.056420952 -0.1213106
0.078229085 0.064303085 0.011485562 -0.2452087 0.11935355 -0.2709443 0.14366396 -0.2622895
0.19511583 0.2547434 -0.20924509 0.15759267 -0.13431023 -0.19465823 0.3146514 -0.014311852
-0.37834272 0.022864234 0.13964343 0.21281886 0.39680356 0.23288871 -0.087867275 -0.021571964
-0.17089511 -0.17701164 -0.3287848 -0.13405196 -0.16132724 -0.23755337 0.15509254 0.33079252
-0.11472161 -0.07226154 0.109162964 0.32697102 0.095859185 -0.020167697 0.4262194 -0.170813
0.122912325 -0.11011361 0.0019073123 0.009892496 0.12613635 0.23045161 -0.41161942 0.040261835
-0.011862432 -0.019679883 0.31573585 0.023089986 0.3356328 0.03355911 0.019999504 0.14587629
0.48810717 -0.1932849 -0.3180007 -0.021021107 0.11787133 -0.16620511 0.28731823 0.079109214
0.066390105 -0.020166988 -0.25812364 -0.06443736 -0.2992741 0.27134764 -0.2620408 0.50024354
0.3638848 -0.04650445 -0.21097152 -0.25429997 0.38971972 0.27554068 0.05355631 0.25020647
0.0081724925 0.09117657 0.25756106 0.26608092 -0.116436 0.13233173 -0.0050748577 -0.28254935
0.29138368 0.35017335 0.015829777 0.19568217 -0.17739585 -0.06758783 -0.14318039 0.012486802
0.10984865 -0.11567689 0.12411635 -0.26440284 -0.4276088 -0.075101525 -0.20022492 0.55415463
-0.02959532 -0.07215459 -0.0932284 -0.06619267 -0.23882261 -0.101330906 0.23605964 0.12861215
0.3414161 0.28421938 -0.29943824 0.068829015 -0.16644326 0.23176494 -0.10597029 0.18337606
-0.024740444 0.4376765 -0.18078226 -0.03679855 -0.44918087 0.24386585 0.3883746 0.118097834
0.28419206 -0.2564171 0.009739159 0.15763894 -0.20767683 -0.034173302 -0.17347687 -0.11244239
-0.17991465 0.144002 0.022248156 -0.20965604 -0.3533819 -0.31973967 0.4518897 0.3282784
-0.104836464 0.44578463 -0.13318826 -0.25881538 0.02906475 0.2002549 0.24185695 -0.043679833
0.09272286 -0.23761447 -0.42066428 0.16204305 0.27611938 0.07334235 0.46191964 -0.032626078
0.42460266 0.047857918 0.11859206 -0.21459022 -0.10190402 -0.18340161 -0.053046327 0.5544079
-0.014934241 0.28272077 -0.0024063336 -0.14585379 -0.13857952 0.14373948 0.2853685 -0.42530528
-0.051944308 -0.23154372 -0.22525874 -0.38221428 -0.3880497 -0.40353397 0.015935479 0.16697748
0.12515652 0.30898663 0.17923166 -0.37856048 0.115209885 0.14202552 -0.31897482 0.23880096
-0.067804374 -0.24693537 0.11938375 -0.066724986 -0.14226694 0.07856534 0.40375936 -0.21337947
0.032343633 0.36199954 0.1140253 -0.25131392 -0.23379654 -0.27805364 0.29881328 -0.0071527306
-0.092873655 -0.16093218 0.036871124 0.20054162 0.16680487 -0.13759574 0.027876552 -0.13678534
00000000: 86c0 43bb 9bef bfbe a7a5 803e 5327 903e
00000010: 1be1 413e 6c55 19be 7fdb 9abe 118a 1ebb
00000020: 0449 1bbe 9bf7 f5be 6ac4 0bbe 8dd0 eb3e
00000030: a863 a2bb ae39 75bd 41ce 88be afc5 11be
00000040: 9a7c 4e3e 27ed d1be 22d5 2dbe 1788 0dbe
00000050: c892 083d 4763 223e 4657 60be e8e8 773e
00000060: 72b7 52be 69d7 da3e 0e78 cf3c 4aa6 703e
00000070: 0c6e c63e b4cb dcbd 41b7 943e e349 b2bd
00000080: 4032 74be 94df 35be 1853 733e 26a3 1d3e
00000090: 5a34 2d3e 5aeb d13d a819 673d b171 f8bd
000000a0: 9236 a03d 56b1 833d f02d 3c3c fd17 7bbe
000000b0: a26f f43d 36b9 8abe a51c 133e cf4a 86be
000000c0: 72cc 473e ba6d 823e 5844 56be f95f 213e
000000d0: 9f88 09be 7d54 47be fd19 a13e 427c 6abc
000000e0: 23b6 c1be c64d bb3c b0fe 0e3e 30ed 593e
000000f0: d629 cb3e 617a 6e3e c2f3 b3bd b0b7 b0bc
00000100: 21ff 2ebe 8a42 35be 7b56 a8be eb44 09be
00000110: f832 25be 3141 73be 94d0 1e3e a35d a93e
00000120: 2af3 eabd dcfd 93bd d590 df3d bf68 a73e
00000130: d251 c43d ba36 a5bc 6e39 da3e 9ae9 2ebe
00000140: 75b9 fb3d 3f83 e1bd c8fe f93a 2314 223c
00000150: e329 013e 82fb 6b3e c8bf d2be 98e9 243d
00000160: a55a 42bc b537 a1bc 21a8 a13e 3627 bd3c
00000170: 10d8 ab3e 4775 093d 00d6 a33c 9860 153e
00000180: 2fe9 f93e 7aec 45be fdd0 a2be 7534 acbc
00000190: 8666 f13d ac31 2abe 601b 933e 0304 a23d
000001a0: 89f7 873d 3d35 a5bc c828 84be bcf7 83bd
000001b0: 743a 99be 14ee 8a3e 362a 86be f60f 003f
000001c0: 1c4f ba3e 737b 3ebd eb08 58be 9b33 82be
000001d0: 5889 c73e ab13 8d3e dc5d 5b3d 101b 803e
000001e0: ebe5 053c c8ba ba3d 0bdf 833e c23b 883e
000001f0: ff75 eebd f881 073e fe4a a6bb 4faa 90be
00000200: 3e30 953e ec49 b33e 73ad 813c e860 483e
00000210: 42a7 35be 7d6b 8abd e19d 12be 7295 4c3c
00000220: 54f8 e03d 01e8 ecbd b730 fe3d cf5f 87be
00000230: 8aef dabe d4ce 99bd c307 4dbe 14dd 0d3f
00000240: e271 f2bc c9c5 93bd 88ee bebd 0690 87bd
00000250: ea8d 74be 9486 cfbd 9eb9 713e e7b2 033e
00000260: 17ce ae3e 3485 913e f84f 99be 3af6 8c3d
00000270: 1a70 2abe ca53 6d3e f406 d9bd efc6 3b3e
00000280: 79ac cabc 2217 e03e fc1e 39be 14ba 16bd
00000290: 09fb e5be f8b7 793e 09d9 c63e 47dd f13d
000002a0: 9f81 913e 1a49 83be fe90 1f3c 1a6c 213e
000002b0: 3ca9 54be 4ef9 0bbd eca3 31be 3248 e6bd
000002c0: 8c3b 38be 4375 133e c441 b63c 13b0 56be
000002d0: 79ee b4be ebb4 a3be 165e e73e 1b14 a83e
000002e0: 80b4 d6bd e23d e43e 8162 08be 7383 84be
000002f0: 3319 ee3c 9f0f 4d3e 59a9 773e a0e9 32bd
00000300: 7ce5 bd3d 3551 73be 4f61 d7be 9dee 253e
00000310: 855f 8d3e 8434 963d bb80 ec3e eca2 05bd
00000320: 8565 d93e aa06 443d 65e0 f23d 8abd 5bbe
00000330: 0eb3 d0bd a2cd 3bbe 1b47 59bd aded 0d3f
00000340: bfae 74bc c7c0 903e 94b3 1dbb b25a 15be
00000350: cae7 0dbe 7130 133e d21b 923e 9dc1 d9be
00000360: 8ec3 54bd cc19 6dbe 3aaa 66be 97b1 c3be
00000370: 73ae c6be 019c cebe 1f8b 823c 25fc 2a3e
00000380: 0829 003e 7f33 9e3e 8188 373e aed2 c1be
00000390: 29f3 eb3d 236f 113e ab50 a3be 3d88 743e
000003a0: 05dd 8abd a0dc 7cbe 787f f43d 1ca7 88bd
000003b0: 6dae 11be dde6 a03d 8cb9 ce3e 2680 5abe
000003c0: c27a 043d 0158 b93e 1986 e93d 38ac 80be
000003d0: 5c68 6fbe 0c5d 8ebe 0efe 983e 7461 eabb
000003e0: 8b34 bebd 68cb 24be 2d06 173d c85a 4d3e
000003f0: e5ce 2a3e e6e5 0cbe 5e5d e43c 7511 0cbe

stylus_predictor/r/linear/MatMul_2 f4 [16, 16]
0.11388087 0.0031499844 0.3973299 0.2783085 0.33591628 0.0065579666 -0.481338 0.32972124
-0.018772667 -0.06882834 -0.06759277 0.44970256 -0.21146291 0.00486055 0.22819501 0.39575267
0.10958162 0.08380415 0.16244324 -0.101693414 -0.26861152 -0.09192144 -0.09425496 -0.008958389
0.15794578 -0.29568398 -0.25402892 0.15398724 -0.1591446 0.070867576 -0.0137561355 0.33335787
-0.15449357 0.08009948 0.28101888 -0.100675486 0.21524696 -0.33216643 0.28938574 0.36814505
-0.12679088 0.20722832 0.02099471 0.111148 -0.12682213 -0.4534177 0.27732298 -0.169801
0.06808116 -0.016692545 -0.031226687 -0.16294073 -0.028510226 0.1765539 -0.11180727 0.23578954
0.12696661 0.27781004 0.03983889 0.024814345 -0.03195449 -0.20014016 0.40813088 0.2543238
0.012598839 -0.10221574 -0.1130536 0.051482856 -0.059117008 -0.1027971 -0.19652408 -0.27516365
-0.13519415 -0.13557762 0.042201713 0.05982139 0.14559738 -0.15717493 -0.111010514 0.0011003098
0.07454409 -0.17402726 -0.19303592 -0.17131256 0.10618281 0.09445315 -0.15118112 -0.07835273
-0.24969314 -0.11965447 0.10641906 0.3417982 0.17855412 0.46363607 -0.23436368 0.22816168
0.3329936 0.07871114 -0.015054316 -0.13124768 -0.27665448 -0.24205908 0.05114879 0.045105573
0.13223433 -0.21460637 0.47548914 0.10568212 -0.22158441 0.093298644 -0.27814817 0.2977057
-0.05613602 -0.3104909 0.45883486 0.06359169 0.0825083 0.16533107 0.06772165 -0.032731146
0.21239457 0.44836977 0.22247301 -0.12969908 0.29192865 -0.19836734 -0.082140505 -0.46920362
-0.09219485 -0.05951615 -0.211407 0.0951745 0.44137445 -0.28564042 0.38309377 0.08594462
-0.27401355 -0.25166464 -0.004357438 0.1701591 0.23165995 0.24861494 -0.14953652 0.26189
-0.123956464 -0.043660957 0.24320017 -0.1929972 -0.007221195 0.04482471 0.40793127 -0.4913151
0.24205089 0.025685268 0.13191505 0.10383737 -0.26154655 -0.010937884 -0.18928656 0.13303345
0.27311644 -0.14383869 0.01474924 0.11013746 0.3770015 0.1465785 0.015811447 0.08166162
0.11633025 0.064111024 -0.011725732 -0.2914669 -0.28189045 0.15080442 -0.33959326 0.09345852
0.16741125 0.018971497 0.2840718 0.08911881 0.2259527 -0.46806586 0.29014155 -0.5379907
0.049133394 0.36791614 -0.24362893 -0.05613217 0.1293459 -0.45089343 0.10052631 0.43974113
-0.33501285 0.05555915 0.23881724 -0.13591321 -0.046258137 -0.3203865 -0.27634907 0.052260872
-0.23760146 0.32492465 0.14532733 0.07261444 0.14708517 0.07587748 0.017371446 -0.0657092
-0.094145454 -0.050639287 0.15332343 -0.31590742 0.3044672 -0.3796307 0.28176 -0.04560417
0.055345666 0.09031085 -0.07961155 0.29660323 0.23443294 0.09366257 0.11976821 -0.108887546
-0.14911878 -0.09166404 0.27870783 -0.21319495 -0.10622478 0.216397 0.5799476 -0.42068714
0.284234 0.14245546 -0.04675763 0.18074843 0.14369006 0.29556096 0.19349343 -0.33981147
0.01778015 0.056501377 -0.2304988 -0.15276176 -0.26181424 -0.105178386 0.045788135 0.3596974
0.23267215 0.04504394 -0.05160274 0.23318635 0.37814897 0.3057289 0.0106717255 -0.10356997
00000000: 603a e93d f86f 4e3b d36e cb3e 747e 8e3e
00000010: 38fd ab3e 36e4 d63b ef71 f6be 39d1 a83e
00000020: 23c9 99bc dff5 8cbd 146e 8abd 6a3f e63e
00000030: bc89 58be 4045 9f3b f4ab 693e 18a0 ca3e
00000040: 546c e03d 83a1 ab3d 8557 263e a344 d0bd
00000050: 7387 89be 4f41 bcbd bf08 c1bd 35c6 12bc
00000060: 8abc 213e e463 97be 1410 82be d5ae 1d3e
00000070: cdf6 22be 0523 913d 6a61 61bc e2ad aa3e
00000080: 9033 1ebe 320b a43d b5e1 8f3e f32e cebd
00000090: b369 5c3e b811 aabe 5e2a 943e 827d bc3e
000000a0: 78d5 01be a933 543e 19fd ab3c 90a1 e33d
000000b0: a9dd 01be 5d26 e8be 47fd 8d3e 50e0 2dbe
000000c0: 236e 8b3d cebe 88bc 1ccf ffbc efd9 26be
000000d0: 478e e9bc 8cca 343e 36fb e4bd d072 713e
000000e0: 8903 023e 1e3d 8e3e 1b2e 233d 7447 cb3c
000000f0: b6e2 02bd 8bf1 4cbe 88f6 d03e bb36 823e
00000100: 5c6b 4e3c 7c56 d1bd a588 e7bd b0df 523d
00000110: ad24 72bd 4987 d2bd 9c3d 49be 40e2 8cbe
00000120: 5670 0abe dcd4 0abe b4db 2c3d 4607 753d
00000130: 7b17 153e 77f2 20be 7b59 e3bd 4538 903a
00000140: 92aa 983d 3434 32be 35ab 45be 8f6c 2fbe
00000150: 6076 d93d a770 c13d 39cf 1abe 6577 a0bd
00000160: 8faf 7fbe 670d f5bd 3cf2 d93d 2c00 af3e
00000170: e4d6 363e b561 ed3e 08fd 6fbe 37a3 693e
00000180: 237e aa3e 4e33 a13d 61a6 76bc cb65 06be
00000190: a8a5 8dbe 56de 77be 6581 513d 9fc0 383d
000001a0: 7068 073e c6c1 5bbe 5073 f33e de6f d83d
000001b0: 06e7 62be 5c13 bf3d 7069 8ebe e26c 983e
000001c0: e2ee 65bd aaf8 9ebe 67ec ea3e 5c3c 823d
000001d0: 1dfa a83d 8c4c 293e a6b1 8a3d 1811 06bd
000001e0: f67d 593e b990 e53e f7cf 633e d6cf 04be
000001f0: ac77 953e cf20 4bbe 4839 a8bd 753b f0be
00000200: a7d0 bcbd 35c7 73bd 147b 58be d9ea c23d
00000210: d5fb e13e 763f 92be de24 c43e bc03 b03d
00000220: 814b 8cbe 30da 80be d7c8 8ebb 303e 2e3e
00000230: 4438 6d3e ea94 7e3e 1a20 19be 7216 863e
00000240: e3dc fdbd d5d5 32bd 7709 793e 0fa1 45be
00000250: c69f ecbb 1d9a 373d 5edc d03e a78d fbbe
00000260: 30dc 773e e969 d23c bd14 073e b0a8 d43d
00000270: 6ee9 85be d034 33bc 56d4 41be ec39 083e
00000280: ebd5 8b3e 734a 13be cca6 713c c08f e13d
00000290: 5706 c13e ad18 163e 0287 813c 353e a73d
000002a0: 8e3e ee3d a44c 833d 491d 40bc 263b 95be
000002b0: f253 90be 796c 1a3e 2bdf adbe 2e67 bf3d
000002c0: db6d 2b3e 1d6a 9b3c dc71 913e ec83 b63d
000002d0: 2560 673e 54a6 efbe 6f8d 943e c2b9 09bf
000002e0: 1940 493d 815f bc3e dd79 79be d9ea 65bd
000002f0: 4073 043e 81db e6be bde0 cd3d c025 e13e
00000300: ce86 abbe fe91 633d 828c 743e d52c 0bbe
00000310: 2c79 3dbd b309 a4be a07d 8dbe 7f0f 563d
00000320: cc4d 73be 865c a63e b0d0 143e e1b6 943d
00000330: 7f9d 163e a765 9b3d 904e 8e3c 8c92 86bd
00000340: 55cf c0bd 246b 4fbd d100 1d3e 9ebe a1be
00000350: 20e3 9b3e f55e c2be d942 903e 70cb 3abd
00000360: 23b2 623d e5f4 b83d 610b a3bd 61dc 973e
00000370: 300f 703e 29d2 bf3d 0949 f53d 6f00 dfbd
00000380: 98b2 18be 5bba bbbd cbb2 8e3e c74f 5abe
00000390: 618c d9bd 2d97 5d3e 7277 143f 4e64 d7be
000003a0: 1e87 913e d8df 113e ee84 3fbd 1e16 393e
000003b0: 7d23 133e c453 973e 2423 463e c5fb adbe
000003c0: ada7 913c fd6d 673d e107 6cbe 946d 1cbe
000003d0: 840c 86be c467 d7bd 578c 3b3d 422a b83e
000003e0: 9c41 6e3e ff7f 383d 655d 53bd 67c8 6e3e
000003f0: be9c c13e 8088 9c3e 76d8 2e3c 7e1c d4bd

stylus_predictor/r/linear/MatMul_3 f4 [8, 16]
-0.16425762 0.12494052 -0.06743524 0.033721883 -0.3508132 -0.3080995 -0.13468428 -0.13883255
0.13820219 -0.2493137 -0.10655723 0.15023051 0.11230459 0.10157934 0.05278392 -0.122590885
-0.4206397 0.1192932 0.18087111 0.23427275 0.17991558 -0.35335466 -0.375353 0.17708798
-0.42948544 0.005850751 -0.35210428 -0.5740262 0.1856524 -0.43784252 0.23751378 0.07282728
-0.16949388 -0.46383512 -0.12867482 0.16926327 -0.23037095 0.37454972 0.36775428 0.11197396
-0.24672312 0.076825954 -0.08345027 -0.3743804 -0.15734877 -0.24804455 0.36420608 -0.20285086
-0.07654428 0.014365878 -0.52120304 -0.41232273 -0.18195935 -0.120952435 -0.036802974 0.40242773
0.07155697 0.46734467 -0.23519099 0.41647032 -0.08807046 -0.115097 0.6319491 0.48827532
-0.15361251 0.13872601 -0.2692286 0.4194909 -0.1456191 0.11591115 -0.103829995 0.01569387
-0.03090319 -0.011946605 -0.21302159 -0.16622713 0.26936463 0.18030047 0.11008369 -0.39063296
-0.16154331 -0.0051476015 -0.24078268 0.051395092 -0.20149109 0.05524457 0.29693982 -0.17635857
-0.050897807 0.1302579 -0.2505155 0.042494137 -0.030432375 -0.27176297 -0.08057008 -0.054868262
-0.20210142 0.10871443 0.31554183 0.033399913 -0.11167969 0.289543 -0.06305901 0.23619337
-0.18324494 0.36365563 0.35331127 0.17571487 0.18712544 -0.3027585 0.38888308 0.050852958
0.06424739 0.2674462 -0.14599209 0.040720895 -0.21912432 0.19000866 -0.05282912 -0.14056578
0.19936588 0.10748276 0.49179915 -0.41406658 0.024878534 0.06765221 0.2623829 0.42463985
00000000: 2633 28be d1e0 ff3d 7d1b 8abd f51f 0a3d
00000010: ca9d b3be 38bf 9dbe adea 09be 1f2a 0ebe
00000020: e084 0d3e 174c 7fbe ad3a dabd 07d6 193e
00000030: f3ff e53d d408 d03d f433 583d ee10 fbbd
00000040: 165e d7be fe4f f43d 4736 393e 32e5 6f3e
00000050: ca3b 383e e7ea b4be 452e c0be 8d56 353e
00000060: 84e5 dbbe a8b7 bf3b 0347 b4be 62f3 12bf
00000070: aa1b 3e3e e52c e0be d036 733e 7826 953d
00000080: ce8f 2dbe cc7b edbe 55c3 03be 5a53 2d3e
00000090: 5de6 6bbe fbc4 bf3e 4a4a bc3e 9b52 e53d
000000a0: fca4 7cbe ed56 9d3d fae7 aabd caae bfbe
000000b0: 0920 21be 64ff 7dbe 3879 ba3e 23b8 4fbe
000000c0: 3fc3 9cbd dc5e 6b3c 906d 05bf f71b d3be
000000d0: 8d53 3abe e9b5 f7bd b7be 16bd 020b ce3e
000000e0: 768c 923d cd47 ef3e e8d5 70be 993b d53e
000000f0: 495e b4bd fab7 ebbd 6bc7 213f 39ff f93e
00000100: 994c 1dbe 310e 0e3e 55d8 89be 83c7 d63e
00000110: 2c1d 15be d362 ed3d d2a4 d4bd 6e90 803c
00000120: b028 fdbc b1bb 43bc 5522 5abe 7237 2abe
00000130: 29ea 893e b0a0 383e 8f73 e13d 0b01 c8be
00000140: 9c6b 25be 36ad a8bb bc8f 76be a983 523d
00000150: ae53 4ebe 2148 623d 7f08 983e 5797 34be
00000160: 387a 50bd 5462 053e 9143 80be 550e 2e3d
00000170: 514d f9bc 8424 8bbe ed01 a5bd 8bbd 60bd
00000180: adf3 4ebe aca5 de3d b38e a13e 59ce 083d
00000190: 52b8 e4bd fb3e 943e 1525 81bd addc 713e
000001a0: 90a4 3bbe 1231 ba3e 37e5 b43e 99ee 333e
000001b0: d09d 3f3e 2a03 9bbe af1b c73e 314b 503d
000001c0: 2394 833d b5ee 883e f37e 15be f4ca 263d
000001d0: 2062 60be a191 423e 5963 58bd 7af0 0fbe
000001e0: 9226 4c3e ec1f dc3d 19cd fb3e 8900 d4be
000001f0: 11ce cb3c 3e8d 8a3d 0d57 863e 656a d93e

stylus_predictor/r/linear/MatMul_4 f4 [8, 8]
-0.28613028 -0.13751031 -0.3614383 -0.49796963 0.076314725 0.3137961 -0.112646274 0.36679462
-0.27452943 0.26815304 0.14823288 -0.19238034 0.41006213 -0.20596674 0.27531683 0.35273528
-0.40940142 0.36967233 0.45356208 -0.45121711 -0.080747366 -0.16787256 0.14647184 -0.3931616
0.10330683 -0.14566508 -0.31281075 0.26576322 0.04847068 0.4497204 0.5535698 0.009836009
-0.15046498 -0.6624405 0.1785259 0.6087777 0.2871766 0.009862093 -0.19576545 0.11635093
-0.3435399 0.004338014 0.06805124 0.24560636 -0.22895707 -0.38526586 -0.2698021 0.17144209
-0.119287744 -0.104442164 -0.23921995 0.6222991 -0.43773234 0.6128225 -0.14792724 0.03826031
0.18099394 0.45783302 -0.10547169 0.27201074 0.46905082 -0.2590485 -0.31820473 0.32268587
00000000: ab7f 92be 81cf 0cbe 710e b9be e0f5 febe
00000010: e54a 9c3d e2a9 a03e 17b3 e6bd 81cc bb3e
00000020: 1f8f 8cbe 5b4b 893e 5cca 173e 5aff 44be
00000030: aaf3 d13e f2e8 52be 54f6 8c3e b899 b43e
00000040: 109d d1be b145 bd3e 4a39 e83e ee05 e7be
00000050: e05e a5bd c9e6 2bbe b7fc 153e 7a4c c9be
00000060: 8892 d33d 3a29 15be bb28 a0be 1e12 883e
00000070: 3189 463d c141 e63e c0b6 0d3f 3627 213c
00000080: 7e13 1abe b395 29bf 7ecf 363e dbd8 1b3f
00000090: d008 933e 9e94 213c bd76 48be 6549 ee3d
000000a0: 76e4 afbe e625 8e3b 735e 8b3d 3c80 7b3e
000000b0: b973 6abe 9141 c5be 8023 8abe 848e 2f3e
000000c0: 224d f4bd c6e5 d5bd 13f6 74be fe4e 1f3f
000000d0: 741e e0be efe1 1c3f 3d7a 17be d8b6 1c3d
000000e0: 7a56 393e 1769 ea3e 8b01 d8bd fe44 8b3e
000000f0: 6e27 f03e 01a2 84be bbeb a2be 1537 a53e

stylus_predictor/r/linear/MatMul_5 f4 [5, 8]
-0.24866924 -0.12310239 0.5750851 0.19713643 0.7896884 -0.25114468 0.25777867 -0.20930701
0.47149068 0.23996735 -0.029910818 0.5582169 0.52559614 0.49069515 -0.0008977171 -0.21861823
-0.31416675 -0.25625187 0.4402436 0.04629419 -0.01782825 0.2813868 0.7008425 0.1669941
-0.395301 -0.52771664 0.19063987 0.41781232 0.5909457 -0.22500728 -0.29924935 0.63088816
0.22605377 -0.10355852 -0.0913738 0.049817976 0.18364061 -0.4125353 0.59085095 0.07880404
00000000: 26a3 7ebe 1b1d fcbd c738 133f 22de 493e
00000010: 0529 4a3f 0996 80be 91fb 833e 9454 56be
00000020: 3a67 f13e 00ba 753e 8807 f5bc 4ee7 0e3f
00000030: 788d 063f 653c fb3e c654 6bba 75dd 5fbe
00000040: 77da a0be 7233 83be 9c67 e13e fa9e 3d3d
00000050: 8d0c 92bc ee11 903e 6a6a 333f 8000 2b3e
00000060: e564 cabe 7018 07bf 1937 433e 7feb d53e
00000070: 3848 173f 4f68 66be 3637 99be e381 213f
00000080: a47a 673e 7d16 d4bd 3022 bbbd ef0d 4c3d
00000090: 490c 3c3e d437 d3be 0242 173f 0364 a13d

stylus_predictor/phi/linear/MatMul f4 [16, 80]
0.019865679 -0.09078557 0.049962606 0.09203002 0.0010518173 -0.05057409 -0.014873475 -0.061593603
0.0053361934 0.14779602 0.16700025 -0.0207595 -0.0603544 -0.070170805 0.08472655 -0.053116623
-0.018783044 -0.10816132 0.038210522 0.040691927 0.06711915 -0.00044399593 -0.14761154 0.049536698
-0.04184055 0.20443808 0.21419193 0.12563246 -0.071658134 0.047871124 0.102606684 -0.05908526
0.08073814 0.058851928 -0.013240385 -0.12411382 0.07062356 0.076094985 -0.0011630168 0.06970266
-0.06376791 -0.113684155 -0.12674631 0.08573292 0.032171298 0.004463194 0.013081897 0.14425106
-0.08829942 -0.0077159917 0.11231953 0.075559326 0.0031330697 -0.015642056 0.17436431 -0.042241555
0.13881569 0.06088691 0.060178127 -0.039188005 -0.12938257 -0.15061206 -0.18679518 -0.09005472
0.032216817 -0.19948179 0.06169358 0.22161646 0.04836911 0.1018764 -0.017822247 0.018387996
-0.09747725 -0.12662083 -0.0075415736 0.10536421 0.040173933 0.0072025154 -0.14574471 0.079751275
0.003395677 0.07123035 -0.013166269 0.012136187 0.090553656 0.10984365 -0.009978853 0.019197257
0.008155459 -0.0072348397 0.08048996 0.018191002 -0.006914659 0.114343904 0.031952426 -0.15882915
0.045360636 -0.105743125 -0.078047924 0.022325652 0.03261864 -0.08295222 -0.042959422 -0.12949584
0.082118884 -0.10249505 -0.061287623 0.0049782246 0.07618291 -0.1798111 -0.17477253 0.40420341
-0.16914283 0.031680886 0.23018949 -0.14334507 -0.031826526 0.045773633 -0.074992344 0.0885581
0.030822968 -0.07021368 0.009714436 0.030270565 -0.032895774 0.06247519 0.19039118 0.0029006118
0.07959393 0.05341834 0.018018242 -0.12131899 0.03544749 0.10653053 0.030579207 -0.07023668
0.14247093 0.112417735 -0.097043775 -0.021723919 -0.04596973 -0.11403883 0.030129604 0.20109819
0.17029764 -0.15986001 -0.07425243 0.06250558 0.20092128 0.048032586 -0.08684175 0.09992879
0.20706299 0.17059398 0.03338167 -0.11136298 0.07309816 0.098600656 -0.12769127 -0.0037662454
-0.029646214 -0.06795063 0.055595726 -0.044429805 0.08056101 -0.018108314 0.005546172 0.09674694
-0.019386375 -0.00038291293 0.07847964 -0.017871317 -0.0537106 -0.03366112 0.030460585 0.023758
0.037554648 -0.0009456186 -0.08214269 -0.091964945 0.023711827 -0.20969471 -0.06666489 -0.021477146
0.0061913626 -0.13941257 0.21424623 0.22630242 0.24508792 0.09834361 -0.22072676 -0.69931126
0.040431295 -0.07729472 -0.018222641 -0.05731989 0.18451975 0.17789344 -0.03979837 0.05372632
0.09681154 -0.0738974 -0.17701508 0.098964654 0.05968046 0.017222134 0.14586444 -0.10451233
0.0495949 0.097970665 0.051854875 0.0054106414 0.13302174 0.19336459 0.0014649525 0.15215895
0.27934733 0.23184769 -0.021711731 -0.080518655 0.06950343 -0.2381598 -0.38379484 -0.40279916
-0.11983123 0.14026289 0.018130291 0.077241264 -0.044213094 -0.018291596 0.061615013 0.054629065
0.047819156 -0.030778589 -0.05957486 0.019842185 -0.027333852 -0.025258692 0.038298737 0.03646191
-0.022012027 -0.12350945 0.13218595 -0.13500044 0.004319794 0.12883836 0.13603294 0.07719726
-0.030905489 0.10046207 -0.041893773 -0.026141899 -0.039419334 -0.06616527 0.009736756 0.045762725
00000000: 59bd a23c c9ed b9bd 97a5 4c3d 3c7a bc3d
00000010: 22dd 893a c726 4fbd e0af 73bc 9349 7cbd
00000020: 3cdb ae3b d757 173e 1d02 2b3e d40f aabc
00000030: 2d36 77bd b6b5 8fbd 1d85 ad3d d190 59bd
00000040: e6de 99bc af83 ddbd a382 1c3d 94ac 263d
00000050: c475 893d 20c8 e8b9 7b27 17be fee6 4a3d
00000060: ff60 2bbd 3758 513e 2155 5b3e cca5 003e
00000070: 80c1 92bd 8314 443d 7423 d23d 6303 72bd
00000080: 0a5a a53d b80e 713d 33ee 58bc 632f febd
00000090: 16a3 903d b0d7 9b3d 5e70 98ba 45c0 8e3d
000000a0: c098 82bd 3dd3 e8bd c9c9 01be be94 af3d
000000b0: 0dc6 033d fc3f 923b 7455 563c 8db6 133e
000000c0: 54d6 b4bd 6ed6 fcbb c807 e63d d9be 9a3d
000000d0: 3054 4d3b c523 80bc 8f8c 323e 7b05 2dbd
000000e0: b325 0e3e 8d64 793d 577d 763d 9a83 20bd
000000f0: dd7c 04be 0c3a 1abe 3c47 3fbe 9c6e b8bd
00000100: c8f5 033d f444 4cbe 68b2 7c3d 6def 623e
00000110: b01e 463d 93a4 d03d f6ff 91bc 6ca2 963c
00000120: 27a2 c7bd e4a8 01be 4e1f f7bb 31c9 d73d
00000130: 6c8d 243d 1403 ec3b 1a3e 15be a354 a33d
00000140: 028a 5e3b 38e1 913d 56b7 57bc dcd6 463c
00000150: 3274 b93d b5f5 e03d 587e 23bc 9143 9d3c
00000160: 799e 053c 3c12 edbb ecd7 a43d 4c05 953c
00000170: 5d94 e2bb 232d ea3d 8ce0 023d 1ca4 22be
00000180: 13cc 393d da8f d8bd 97d7 9fbd 49e4 b63c
00000190: 209b 053d dbe2 a9bd 38f6 2fbd 8f9a 04be
000001a0: f22d a83d ede8 d1bd bb08 7bbd 6020 a33b
000001b0: c905 9c3d 6720 38be 92f7 32be c0f3 ce3e
000001c0: c733 2dbe d1c3 013d cbb6 6b3e 0dc9 12be
000001d0: 885c 02bd 227d 3b3d 9695 99bd f35d b53d
000001e0: 7380 fc3c 31cc 8fbd 4c29 1f3c faf9 f73c
000001f0: b8bd 06bd fce5 7f3d e8f5 423e 3118 3e3b
00000200: 2402 a33d 30cd 5a3d fe9a 933c 1776 f8bd
00000210: 6331 113d ae2c da3d 3f81 fa3c 40d8 8fbd
00000220: e6e3 113e 453b e63d e3be c6bd 5cf6 b1bc
00000230: c14a 3cbd 318d e9bd 5cd2 f63c afec 4d3e
00000240: 8162 2e3e 58b2 23be a811 98bd ed02 803d
00000250: 4fbe 4d3e d1bd 443d 16da b1bd 77a7 cc3d
00000260: 5208 543e 30b0 2e3e 38bb 083d 4612 e4bd
00000270: 7db4 953d 24ef c93d 80c1 02be 1dd3 76bb
00000280: 9edc f2bc b329 8bbd 58b8 633d 07fc 35bd
00000290: 2cfd a43d e357 94bc aabc b53b 4223 c63d
000002a0: 2dd0 9ebc b4c1 c8b9 efb9 a03d de66 92bc
000002b0: a5ff 5bbd 3ee0 09bd 7a88 f93c 23a0 c23c
000002c0: e7d2 193d 64e3 77ba 6d3a a8bd 1e58 bcbd
000002d0: 4e3f c23c 36ba 56be 9a87 88bd d7f0 afbc
000002e0: eae0 ca3b 2bc2 0ebe 5d63 5b3e d2bb 673e
000002f0: 54f8 7a3e 6068 c93d 3206 62be 1006 33bf
00000300: 499b 253d b24c 9ebd a647 95bc 43c8 6abd
00000310: bff2 3c3e b329 363e 9e03 23bd 2110 5c3d
00000320: 2145 c63d 8557 97bd 7143 35be fbad ca3d
00000330: 7f73 743d 6f15 8d3c 7d5d 153e 8f0a d6bd
00000340: 0624 4b3d d8a4 c83d c765 543d c04b b13b
00000350: da36 083e 5e01 463e a603 c03a 8ecf 1b3e
00000360: 9d06 8f3e 7b69 6d3e cddc b1bc f7e6 a4bd
00000370: d057 8e3d 2ae0 73be c280 c4be b13b cebe
00000380: 136a f5bd 13a1 0f3e fa85 943c ab30 9e3d
00000390: ca18 35bd 42d8 95bc 0660 7c3d bac2 5f3d
000003a0: 05de 433d 6123 fcbc c504 74bd 148c a23c
000003b0: 3eeb dfbc 51eb cebc 23df 1c3d 1559 153d
000003c0: 9152 b4bc 86f2 fcbd c15b 073e 8e3d 0abe
000003d0: 0f8d 8d3b 34ee 033e 384c 0b3e 9919 9e3d
000003e0: 822d fdbc 0fbf cd3d ce98 2bbd 8927 d6bc
000003f0: 2b76 21bd a881 87bd ea86 1f3c b271 3b3d

stylus_predictor/phi/linear/MatMul_1 f4 [16, 16]
-0.19024926 0.057480164 0.25524133 -0.34522262 -0.019569272 0.15846454 -0.38004494 0.4314903
0.44661444 0.18034385 -0.14104053 0.2320566 0.022372315 -0.28174594 0.20754442 0.22946924
0.13636598 -0.2654109 -0.13886146 0.15790822 0.14071807 -0.17437655 0.1543855 0.086237766
-0.19650792 -0.24918981 -0.12039412 0.2591333 -0.23607464 0.037795983 -0.05907524 0.26300302
0.24985474 -0.16940129 0.32675156 0.19418363 0.00027960815 -0.35817343 -0.060927793 -0.2515313
0.47375014 -0.20648365 0.42378074 -0.023347737 -0.025774866 -0.20112862 -0.17608866 0.054454423
-0.38717404 -0.21303542 -0.43912232 0.18198857 0.30074233 -0.27993947 0.22309381 -0.30674618
0.099007584 0.074170694 0.11482207 -0.23542726 0.19438186 -0.26060322 -0.36200368 0.00023844768
0.18042506 -0.2188897 0.19390166 -0.026070993 0.17064856 0.29327896 -0.056412544 0.02607661
0.33334357 0.17561358 0.22026731 0.036219627 0.10659884 0.16964531 0.07017124 -0.06991239
-0.10466959 0.20578218 -0.3475431 0.041262787 -0.2695705 -0.33210346 -0.2793584 0.27963743
0.14289731 -0.29297444 -0.32730472 -0.13515593 0.16176689 -0.14127026 -0.09062981 -0.43591878
0.27013183 -0.2171054 0.07163257 0.28792936 0.15751551 -0.13351491 0.0030940457 -0.14986633
-0.06299381 -0.17665379 -0.29184076 0.038488567 0.03198431 -0.19808315 -0.39557377 0.09079943
-0.16688037 -0.058870304 -0.019925885 0.02584504 0.17151074 0.44698456 -0.09757558 0.36173669
-0.2471256 -0.19255398 0.048552264 -0.37567753 0.18000108 0.22393383 0.23373753 0.16115078
0.017393453 0.12455401 0.24244756 -0.2680112 -0.42983687 -0.07573382 -0.053801987 -0.007661746
-0.14011374 -0.27572435 0.35866567 0.12985493 0.2898034 0.4062316 0.07172604 -0.2123556
-0.21573433 -0.28709507 0.33693123 -0.012978833 0.13147017 -0.2012693 0.402322 0.3271172
0.06658483 -0.09216223 -0.11399317 0.019769002 -0.030142836 0.048857782 0.24723537 -0.010377151
-0.19277845 -0.3683546 0.156992 0.28200454 0.08467049 -0.13807482 0.040135674 0.028787505
0.22955146 0.18313707 0.050274402 0.21609962 0.040589098 0.39280048 -0.0025317369 0.14538363
0.14741698 0.15352562 0.19581833 -0.057014517 -0.0115973195 -0.113615826 -0.14624007 0.1693802
-0.032796077 0.14472678 0.07289747 -0.43531838 -0.001086263 -0.0274686 0.18732584 0.031045474
-0.025555184 -0.30634904 -0.13788436 -0.0710277 -0.27921194 -0.08056592 -0.46833912 0.20952563
0.049382012 0.19712934 -0.3559654 0.48265752 0.1270039 -0.07681935 0.37942284 0.0028747076
-0.047336746 0.22972497 -0.47949037 -0.23816344 0.1314146 0.12344272 0.21570395 -0.0030210079
-0.0974166 -0.030746257 -0.107680544 -0.1189649 -0.004870037 -0.092803866 -0.02312032 0.055089507
-0.0082424125 0.12139357 -0.11313734 0.2592516 0.21716753 -0.08811318 -0.038876597 0.043454923
-0.15404202 0.26574156 -0.010129154 0.03823599 0.17881402 -0.11019163 0.055877864 -0.044258814
-0.2020116 0.2739696 -0.4369485 -0.27281994 0.13366783 -0.2810948 0.10131193 -0.027256966
0.108021505 0.038401287 0.019567426 -0.2305759 0.50228256 0.023955503 0.16698281 0.14292113
00000000: b4d0 42be 5270 6b3d feae 823e 05c1 b0be
00000010: bd4f a0bc 8744 223e 4095 c2be 4cec dc3e
00000020: a6aa e43e 0fac 383e ee6c 10be 3fa0 6d3e
00000030: 2546 b73c 0141 90be 8686 543e fcf9 6a3e
00000040: 86a3 0b3e f0e3 87be b331 0ebe b1b2 213e
00000050: 6618 103e c48f 32be 3c17 1e3e 6d9d b03d
00000060: 5f39 49be 9d2b 7fbe 3191 f6bd 1fad 843e
00000070: 8dbd 71be f6cf 1a3d e1f8 71bd 55a8 863e
00000080: ecd9 7f3e 8877 2dbe fb4b a73e 13d8 463e
00000090: 5f98 9239 8262 b7be 6c8f 79bd b6c8 80be
000000a0: 618f f23e 7370 53be caf9 d83e c143 bfbc
000000b0: d025 d3bc a9f4 4dbe 9650 34be 9a0b 5f3d
000000c0: ad3b c6be f525 5abe a4d4 e0be 365b 3a3e
000000d0: e6fa 993e 3a54 8fbe b472 643e d60d 9dbe
000000e0: 7dc4 ca3d cee6 973d d527 eb3d d813 71be
000000f0: 0a0c 473e c96d 85be 8c58 b9be d007 7a39
00000100: 59c1 383e 9f24 60be 288e 463e d692 d5bc
00000110: 7fbe 2e3e a928 963e d710 67bd 9d9e d53c
00000120: 02ac aa3e 0cd4 333e c18d 613e 085b 143d
00000130: 7e50 da3d 80b7 2d3e f0b5 8f3d 3a2e 8fbd
00000140: 035d d6bd 90b8 523e 2bf1 b1be 2b03 293d
00000150: 2505 8abe 7709 aabe 1008 8fbe a32c 8f3e
00000160: ac53 123e bf00 96be 7c94 a7be 5166 0abe
00000170: 38a6 253e 27a9 10be 1f9c b9bd bf30 dfbe
00000180: b84e 8a3e e150 5ebe 19b4 923d 7a6b 933e
00000190: bf4b 213e 22b8 08be 79c5 4a3b 8f76 19be
000001a0: e602 81bd bbe4 34be 276c 95be 30a6 1d3d
000001b0: fb01 033d 4fd6 4abe a588 cabe 0df5 b93d
000001c0: b0e2 2abe fd21 71bd 9c3b a3bc fab8 d33c
000001d0: 83a0 2f3e 29db e43e b5d5 c7bd 8d35 b93e
000001e0: 7e0e 7dbe df2c 45be bdde 463d ce58 c0be
000001f0: 3452 383e e94e 653e e458 6f3e b604 253e
00000200: b77c 8e3c 2c16 ff3d 2c44 783e c438 89be
00000210: 9413 dcbe 551a 9bbd 795f 5cbd 620f fbbb
00000220: fa79 0fbe be2b 8dbe 07a3 b73e b1f8 043e
00000230: 1c61 943e 97fd cf3e 1ae5 923d bf73 59be
00000240: 76e9 5cbe 20fe 92be 4082 ac3e 2ca5 54bc
00000250: 1ea0 063e 8a19 4ebe 26fd cd3e e87b a73e
00000260: a15d 883d 8dbf bcbd 4075 e9bd 9af2 a13c
00000270: 1cee f6bc 191f 483d 452b 7d3e ed04 2abc
00000280: b767 45be f998 bcbe 83c2 203e e662 903e
00000290: b967 ad3d 7c63 0dbe 4e65 243d c6d3 eb3c
000002a0: 8a0f 6b3e 4988 3b3e 88ec 4d3d 3849 5d3e
000002b0: c140 263d 251d c93e 7feb 25bb 72df 143e
000002c0: 7af4 163e d235 1d3e 9a84 483e 0e88 69bd
000002d0: af02 3ebc 6aaf e8bd f5bf 15be 0172 2d3e
000002e0: 2e55 06bd 4233 143e 454b 953d 0de2 debe
000002f0: f060 8eba d405 e1bc 58d2 3f3e 1453 fe3c
00000300: 1b59 d1bc c8d9 9cbe 8f31 0dbe f976 91bd
00000310: def4 8ebe bfff a4bd 25ca efbe e38d 563e
00000320: cb44 4a3d 46dc 493e 1941 b6be e31e f73e
00000330: 4f0d 023e 7753 9dbd b643 c23e 9765 3c3b
00000340: 2de4 41bd 063d 6b3e c37f f5be 1ee1 73be
00000350: 8d91 063e 89cf fc3d 7fe1 5c3e 1afc 45bb
00000360: 5b82 c7bd 93df fbbc 9e87 dcbd dfa3 f3bd
00000370: d594 9fbb f40f bebd d366 bdbc 89a5 613d
00000380: 2f0b 07bc 319d f83d 8db4 e7bd a0bc 843e
00000390: 2a61 5e3e af74 b4bd 113d 1fbd cafd 313d
000003a0: 31bd 1dbe 470f 883e c0f4 25bc 579d 1c3d
000003b0: 061b 373e 26ac e1bd 30e0 643d bb48 35bd
000003c0: 21dc 4ebe be45 8c3e b7b7 dfbe 0eaf 8bbe
000003d0: 38e0 083e a8eb 8fbe a17c cf3d 004a dfbc
000003e0: 613a dd3d ab4a 1d3d de4b a03c 171c 6cbe
000003f0: 9795 003f 553e c43c 8bfd 2a3e eb59 123e

stylus_predictor/phi/linear/MatMul_2 f4 [16, 16]
-0.09241054 0.13794653 0.16938497 -0.08073242 -0.36047497 -0.031641643 -0.069040895 -0.23627026
0.2052526 -0.163936 -0.086051375 -0.21171096 -0.25404933 0.18234128 -0.41613713 -0.12053969
-0.20796816 -0.07421203 -0.17741661 0.16429408 0.25833187 0.13272324 -0.14118491 0.14002754
-0.001694669 0.29205835 -0.48483753 -0.2399852 -0.4846777 -0.07336314 0.024345204 0.12932447
0.1932884 0.20263888 -0.32620558 -0.07249177 0.018088663 0.1223228 -0.17623833 0.2232173
0.47506645 -0.3376464 0.061349556 -0.329697 -0.16226026 0.053446498 -0.22203752 -0.023420453
-0.35075668 0.41213733 -0.33564115 0.018866336 -0.047425095 -0.39107642 -0.29982844 0.04186019
0.23011182 0.12188477 0.1395175 -0.21758713 -0.05543464 0.09816883 0.10891517 0.12765336
-0.32989424 -0.10919882 -0.1978056 0.21231487 -0.46940753 -0.013436578 0.11127204 -0.13911642
0.094354264 -0.09946712 0.08018324 0.20596927 -0.29886153 -0.115900196 0.08262131 0.19191377
0.15980129 -0.14211057 -0.0807735 -0.052332584 0.09783702 -0.39579642 0.12614827 0.22739144
0.09694487 0.06643941 0.22935271 -0.36843356 -0.14920841 -0.040969208 0.19525781 0.2226229
-0.2984751 -0.27436537 0.062134784 0.2074273 -0.09643305 0.21923676 0.1492849 -0.02647363
-0.30164656 -0.017415768 0.17996433 0.10714609 -0.11873843 -0.40477893 0.07649353 0.3567022
0.0039068875 -0.004036445 -0.045974508 -0.14277275 0.15431292 0.4891024 -0.036938395 0.38184062
0.015921053 0.26299348 -0.11641497 0.042059045 -0.25350136 0.025241423 -0.30125362 0.06331098
-0.3491749 0.43048704 -0.123694405 0.10475656 0.17208278 0.15392525 -0.1640207 0.35808054
-0.3895626 0.14495426 0.16418627 -0.21551307 0.14802349 -0.15730351 0.11645653 0.030427255
0.21603 -0.0602142 -0.026917417 0.10159107 -0.4155776 0.22043131 0.07668837 0.26395693
-0.12512764 0.11659623 0.19965671 -0.014871941 -0.18687616 -0.23270331 -0.40954724 -0.28765738
-0.08586858 -0.04795038 0.12635398 0.10654715 -0.23536737 -0.07773288 -0.019727137 0.3484175
-0.1632466 0.059304178 -0.049846694 -0.20427616 -0.29624802 0.08257261 -0.470385 -0.0565677
0.07103877 -0.17355633 -0.06688835 -0.12903515 0.032391425 -0.25907242 -0.47820213 -0.49566862
-0.30257282 0.34635368 0.08777326 -0.2424969 -0.14198592 0.13055755 0.047118273 -0.07539438
-0.1010323 -0.028436426 -0.084595576 0.070744455 0.35188413 -0.0111248065 -0.17920794 -0.044291846
0.09401043 0.03823897 -0.22505665 0.10560312 0.029434638 0.077822484 0.1954298 -0.15089019
-0.023802873 0.351274 -0.18533108 0.11065563 -0.23642586 -0.20482028 0.13781278 0.28270674
-0.36686513 -0.08508003 -0.00588558 -0.19550309 -0.18137318 0.2565291 0.15841088 -0.17862745
-0.21246189 0.33769423 0.30713707 0.15437047 -0.022238966 0.1961583 0.3304747 -0.44168425
0.23629196 0.01755012 -0.12811111 -0.17568614 0.33857134 -0.18623634 0.020741101 -0.07425709
0.25447336 0.007049235 0.2902355 -0.024545725 0.27114454 0.035388973 0.3258026 0.3107625
-0.2361537 -0.047805775 0.047385592 0.117210455 0.2038765 -0.23405068 -0.29433155 -0.31974274
00000000: bd41 bdbd db41 0d3e 4173 2d3e 0a57 a5bd
00000010: 2d90 b8be ab9a 01bd 5065 8dbd d5f0 71be
00000020: bd2d 523e d7de 27be b43b b0bd c2ca 58be
00000030: c112 82be acb7 3a3e ed0f d5be 83dd f6bd
00000040: 9bf5 54be 7afc 97bd b3ac 35be b53c 283e
00000050: 1344 843e 9ae8 073e c792 10be 6163 0f3e
00000060: a81f deba ac88 953e a03c f8be aebe 75be
00000070: ad27 f8be 6a3f 96bd 986f c73c a26d 043e
00000080: 65ed 453e 9180 4f3e 6b04 a7be 9176 94bd
00000090: ad2e 943c 6084 fa3d d277 34be 1393 643e
000000a0: e93b f33e fddf acbe ac49 7b3d 0cce a8be
000000b0: 8e27 26be b7ea 5a3d ce5d 63be 40dc bfbc
000000c0: 6196 b3be aa03 d33e 28d9 abbe 938d 9a3c
000000d0: d140 42bd 2b3b c8be 1d83 99be 9775 2b3d
000000e0: 6fa2 6b3e b99e f93d addd 0e3e 29cf 5ebe
000000f0: 6f0f 63bd bd0c c93d eb0e df3d 90b7 023e
00000100: e6e7 a8be a2a3 dfbd 8d8d 4abe 1269 593e
00000110: 2f56 f0be 1825 5cbc 98e2 e33d 8974 0ebe
00000120: cf3c c13d 6bb5 cbbd 1c37 a43d 9ce9 523e
00000130: 6104 99be 155d edbd 5d35 a93d 0b85 443e
00000140: f3a2 233e 6f85 11be 946c a5bd b15a 56bd
00000150: c75e c83d d4a5 cabe 032d 013e 4dd9 683e
00000160: 088b c63d 6311 883d 70db 6a3e 53a3 bcbe
00000170: 17ca 18be 54cf 27bd aaf1 473e 42f7 633e
00000180: bad1 98be 9e79 8cbe 0b81 7e3d d267 543e
00000190: b17e c5bd 9a7f 603e 24de 183e 3adf d8bc
000001a0: 6b71 9abe 83ab 8ebc 9248 383e 696f db3d
000001b0: 222d f3bd 2f3f cfbe a4a8 9c3d aca1 b63e
000001c0: 5905 803b 2844 84bb c44f 3cbd 0533 12be
000001d0: 3504 1e3e a16b fa3e b74c 17bd 9d80 c33e
000001e0: de6c 823c 15a7 863e f96a eebd 1b46 2c3d
000001f0: eeca 81be 1ac7 ce3c ea3d 9abe 30a9 813d
00000200: 0dc7 b2be cc68 dc3e 7e53 fdbd 9b8a d63d
00000210: 7836 303e 959e 1d3e 0bf5 27be 5556 b73e
00000220: c074 c7be e46e 143e 7220 283e 75af 5cbe
00000230: 7893 173e 2c14 21be c380 ee3d 9442 f93c
00000240: f836 5d3e 2aa3 76bd ea81 dcbc fb0e d03d
00000250: 96c6 d4be bfb8 613e cb0e 9d3d 5d25 873e
00000260: 7621 00be 01ca ee3d cf72 4c3e 71a9 73bc
00000270: 775c 3fbe c749 6ebe 2db0 d1be d447 93be
00000280: dedb afbd 9e67 44bd f062 013e 6435 da3d
00000290: 2504 71be 6b32 9fbd ce9a a1bc c763 b23e
000002a0: 1e2a 27be f0e8 723d 0c2c 4cbd c52d 51be
000002b0: d2ad 97be d41b a93d 4dd6 f0be 88b3 67bd
000002c0: c67c 913d c0b8 31be c2fc 88bd ca21 04be
000002d0: dfac 043d 24a5 84be e9d6 f4be 47c8 fdbe
000002e0: d3ea 9abe 4555 b13e 78c2 b33d 1b51 78be
000002f0: c264 11be e1b0 053e 17ff 403d 5e68 9abd
00000300: 06ea cebd 82f3 e8bc 7240 adbd 78e2 903d
00000310: 282a b43e d244 36bc 4982 37be 5e6b 35bd
00000320: 8a88 c03d 77a0 1c3d 4075 66be 7346 d83d
00000330: e920 f13c 6561 9f3d c01e 483e f582 1abe
00000340: 3efe c2bc 30da b33e 6ec7 3dbe 6b9f e23d
00000350: 9f19 72be 68bc 51be cb1e 0d3e f0be 903e
00000360: bfd5 bbbe 703e aebd d3db c0bb f631 48be
00000370: e4b9 39be c857 833e 7636 223e 1dea 36be
00000380: 9c8f 59be 42e6 ac3e 1241 9d3e 4b13 1e3e
00000390: 7e2e b6bc b9dd 483e fb33 a93e 7024 e2be
000003a0: 85f6 713e 45c5 8f3c 8f2f 03be 11e7 33be
000003b0: 3959 ad3e bdb4 3ebe 3ee9 a93c 1a14 98bd
000003c0: 554a 823e 45fd e63b bf99 943e 1e14 c9bc
000003d0: 75d3 8a3e 07f4 103d 99cf a63e 431c 9f3e
000003e0: 47d2 71be fdcf 43bd 6517 423d 090c f03d
000003f0: 00c5 503e fbaa 6fbe a0b2 96be 52b5 a3be
